Task4/checkpoints/MLP_TRAINED.pt (torch, 185306 bytes, 24 tensors)

conv.weight f4 [96, 3, 5, 5]
00000000: 303e 463d df02 ce3b 78b6 933d 5fd4 f33d
00000010: b0f5 983d 0fd8 333d ec6f 063e 9c55 063e
00000020: 8e4c 43bd 8d62 ef3d 81a8 db3d 3c28 f83b
00000030: 373a 443d 432c 0dbd d371 5dbd 99bd d13c
00000040: d824 10bd e8f1 113d 0ca9 fe3c e59e 553d
00000050: 3784 98bd c0b0 17bd 5166 47bc 2eca 243d
00000060: 6b6e 5abd 155c 5cbc a38a 903c f8af 9e3d
00000070: e10b 803d 60b0 ca3c 15c4 773d e599 63bd
00000080: ba72 91bd 1c82 f43d 214c 053e da21 613c
00000090: 4ad1 a43d 9370 dd3d 93bd 033e 6e92 5c3c
000000a0: 2157 f53b b8b5 a8bd 26aa 183c 6316 2bbd
000000b0: 7f82 1ebc 2ed4 023e 180c c7bb 3f18 9ebd
000000c0: 3586 d63d 30f7 b23b e38e 40bd cf42 0b3d
000000d0: f141 6b3c 5069 783d fb00 013e 9881 3ebd
000000e0: 8073 53bd f965 1e3c 6744 a33d 1e55 f43d
000000f0: 7f9a 8cbd 40a7 44bd a852 64ba 60d8 afbd
00000100: e9ee 7ebc 23ce bf3d 3de8 f53d 3853 ab3d
00000110: 8116 16bd f871 89bd eb6c c43d 2b04 7fbc
00000120: 724a df3b ebca c23d caa4 81bc 77c6 c53d
00000130: f3b9 72bd 34ee ab3c 692c 093e 2b6c 463c
00000140: 3775 a5bd f46d 2c3c 56d9 65bd e3f4 893d
00000150: a809 a33d 03da 4abd 58b8 f73c cc2c a13d
00000160: aa9d b73d 9cda 523d c032 09be 8aa3 08be
00000170: 15c4 683d 88eb 023d 9daa dcbd 8855 7b3d
00000180: c40f 15bd 4aa7 16be 6f1e abbd b418 05be
00000190: 3c7e 5cbd e996 d2bc 9c1a f6ba f1f8 c3bb
000001a0: 7f0c 44bc 5624 783d 290e 223d 6d1d f9bd
000001b0: 749a 9c3c 2286 a2bd 4ed9 b6bd fb7e f9bd
000001c0: c304 bebd dfb5 4cbd bed2 19be 8107 d2bd
000001d0: 82ae cbbd c07f 2bbe 05da d13c a12c bcbd
000001e0: 260e d5bd d1ae fbbc cca7 3b3d bd6b 843b
000001f0: c9a4 0fbe a52a b63d e26c 69ba ce00 7e3d
00000200: 91ed 32bd 35e3 023e 886e a0bd 731d 8c3d
00000210: 7c8f e83d f77b 073d 1e8d c93d 4ed1 403d
00000220: 1928 3dbd c010 dc3c f052 1e3d 6615 67bc
00000230: ea54 f4bd ba5c 283d 4c64 e2bd 978d 853d
00000240: c462 fdbc 3ebf 81bc c4cb 4bbd f561 a2bd
00000250: 1e51 42bd 29d9 e9bd 038b 30bd b76c a73d
00000260: d0e5 da3d e6f2 c7bd be3f 97bc 0d71 af3c
00000270: d495 83bd a508 533c c792 98bc ccfa c53c
00000280: f22b 83bd e0bb d0bd ddc8 8fbc 2ac1 9b3d
00000290: 6f8f d93d 6f80 c33d 802a 033c 0c11 b53d
000002a0: e3be 29bd 2ecc a03d 3552 9d3c f180 bdbd
000002b0: 1f1c 17bd 24c9 d33d b3f0 47bd cb1b 98bd
000002c0: 2b16 173e 70f6 6a3d 38cb 3c3d 7645 15bd
000002d0: 3f54 ff3d 347e d43d 2be3 c0bd a8b1 543d
000002e0: 40ae eb3d 6f48 a4bd b950 213d b7cd 44bd
000002f0: 981c b13d d53b c63d ba44 9a3d 85f4 94bc
00000300: 60ae cd3d 4cc7 24bc 825e a63d 6a6b 893d
00000310: a1df b3bd 4191 84bd 8d84 a1ba 9537 c8bd
00000320: 9eaa 973c 909d d93d f1c0 083e bb00 8f3c
00000330: fb6a d6bb 148a 67bd 8b68 673d 42b7 ec3c
00000340: bc1b 7c3d d9cd 9bbd 9ab0 e03c bfb2 02bd
00000350: a2ae 52bd 780c 9a3d 7c7a 8cbd 5655 2dbd
00000360: b2c0 dd3d d48d 75bd 50a7 c93d 08fc eebc
00000370: 0f1d 6abd 0773 f03b 0e46 65bd a745 333d
00000380: 532f b23d fda4 b4bd 5183 a9bd 5a87 05bd
00000390: 9856 3fbb 577d a23d bc65 a13d c33f b1bd
000003a0: df48 693d 3384 703d ea0e d6bd 2049 763d
000003b0: 71c9 b73d 0dec 65bd e5a7 a33d 0155 ab3d
000003c0: 7b2b e73c 08e3 c6bb 05eb 7b3d 1cc0 4b3d
000003d0: f94d a03d be81 a6bd b28a 103d 8778 673d
000003e0: 0e15 d4bd c956 35bc 9790 c9bd 762d fbbd
000003f0: 43b5 843d 7f44 0ebe 99fb 2abe 58c9 453d
0.04839915 0.0062869634 0.072125375 0.11905741 0.07468736 0.04390722 0.13128632 0.13118595
-0.04768043 0.11688719 0.10725499 0.0075731557 0.04790708 -0.03446604 -0.05406363 0.025603103
-0.035191387 0.03563109 0.031086467 0.052153487 -0.07447093 -0.037033796 -0.01217039 0.040231876
-0.05332796 -0.013449688 0.017644232 0.07748407 0.06252266 0.024742305 0.060489733 -0.055566687
-0.071019605 0.11938879 0.13017322 0.013740981 0.08047731 0.108124875 0.12865286 0.013462646
0.007487193 -0.08237785 0.00931791 -0.041769397 -0.009674667 0.12776253 -0.0060744397 -0.07719468
0.10474817 0.005461596 -0.047011267 0.03399926 0.014358983 0.06064731 0.1259803 -0.04651031
-0.05162382 0.009667867 0.07972031 0.11930297 -0.06865405 -0.048011065 -0.00087098265 -0.08586192
-0.01555989 0.09365489 0.120071866 0.08365482 -0.036642555 -0.06711191 0.09591087 -0.015564959
0.0068142945 0.0951136 -0.015825648 0.09656995 -0.059259366 0.020987608 0.13395847 0.01211075
-0.080789976 0.010524262 -0.05611547 0.067361616 0.07960826 -0.04952432 0.03023927 0.078698725
0.08965619 0.051478013 -0.13398266 -0.13343635 0.056827623 0.0319629 -0.107747294 0.061360866
-0.03639199 -0.14712253 -0.08355414 -0.12997705 -0.053831324 -0.025706725 -0.0018776241 -0.005980604
-0.01196587 0.060581528 0.039564285 -0.12163816 0.019116618 -0.0793574 -0.08928166 -0.12182423
-0.09278252 -0.049978133 -0.15021798 -0.102553375 -0.09945394 -0.16747952 0.025616655 -0.091882
-0.10403089 -0.030723007 0.04581432 0.0040411637 -0.14027704 0.088948525 -0.00089044694 0.062012486
-0.043683592 0.12781985 -0.07833582 0.068415545 0.113554925 0.033077206 0.09841369 0.04707461
-0.04618082 0.026863456 0.038653314 -0.014104223 -0.119302586 0.041104056 -0.11054286 0.06521147
-0.030930884 -0.015838262 -0.049754873 -0.0792884 -0.04744064 -0.11418373 -0.043101322 0.081750326
0.106883645 -0.09763126 -0.018463012 0.021416212 -0.06425062 0.012880479 -0.018624676 0.02416744
-0.06404866 -0.10192084 -0.017551834 0.076052025 0.10623061 0.09545981 0.008005738 0.08841142
-0.04144181 0.07851444 0.019204238 -0.09253109 -0.036892053 0.10341099 -0.048813533 -0.07427176
0.1475455 0.057363927 0.046092242 -0.036443196 0.124672405 0.10375634 -0.09418329 0.05192724
0.11507845 -0.08021628 0.039383624 -0.048047747 0.08648032 0.09679381 0.0753264 -0.018183002
0.10043025 -0.010057282 0.08123495 0.06709941 -0.08782888 -0.064730175 -0.0012322828 -0.097762264
0.018513974 0.10625756 0.13354851 0.017456403 -0.006543515 -0.056528166 0.056496184 0.028895978
0.061549887 -0.07607622 0.02742796 -0.031908747 -0.051436074 0.075219095 -0.068592995 -0.04231771
0.10827769 -0.05994971 0.098463655 -0.029172912 -0.05715662 0.007337931 -0.055975012 0.043767598
0.08700433 -0.088205315 -0.08277 -0.032599784 -0.00291959 0.07934063 0.078807324 -0.0865474
0.05695426 0.058719825 -0.104520634 0.06012833 0.08973969 -0.05613332 0.07991008 0.083658226
0.028218975 -0.0060695447 0.06150343 0.049743757 0.07827372 -0.08130215 0.03528852 0.05651143
-0.10355578 -0.0110680545 -0.098420314 -0.1226453 0.064798854 -0.13893317 -0.1669754 0.04828772

conv.bias f4 [96]
00000000: 4801 a1bd 08a4 a03d 9e89 783d 678b a83a
00000010: 0066 113d f722 8abc d73a 6f3d c1cf e5bd
00000020: f349 dbbd af7e 3cbd d34b ca3b 5997 ea3d
00000030: ea36 7fbd 2bba 9abd 6c32 70bd b43f 2e3b
00000040: 6b86 a23a dbb1 a0bd 2187 cabc b44d 91bc
00000050: 3e08 bebd 55f9 2abd 823d e7bd 280a e2bd
00000060: 3fbd a63d f8aa 783d 68c1 ac3d 405c 203c
00000070: 52f4 edbd 89ed a73d 2604 a43d fe0a d1bd
00000080: 745c 35bd d54d 13bd 3e83 dcbc d258 563d
00000090: 36d4 1fbd f479 b8bc b57a 8d3d 1a6a 5e3d
000000a0: 7e87 1cbd 15e0 023d 7268 ac3d 18bc 36bd
000000b0: 4df2 00bc 6d11 ebbd 7c7f 793d 44e8 603d
000000c0: 3b37 c03d 6248 e03d 7407 7c3d 93d4 e93d
000000d0: e0f0 a83d a179 b7bd d470 ecbc db35 d9bd
000000e0: f710 633d 6c24 893d faca 39bd 6e55 68bd
000000f0: 7ce8 d83d f169 7f3b bf63 a2bd 59ad d13c
00000100: 351b e8bd 1c11 debd c98d 88bd 9525 cbbd
00000110: 9f36 70bd 20b2 693d 0a6f 8c3d 4166 24bd
00000120: 0213 74bd 3c4c 1d3d 8f9d 693d e0a4 7f3d
00000130: c74f cabd d268 823d 2fd7 88bd fe21 c03d
00000140: 3673 4dbc b508 3b3d c748 b3bb 17b8 4e3d
00000150: 2566 4cbd b1be 58bd b744 b03d 72f6 8cbd
00000160: 4588 283d 1461 7c3d a76d 8dbc 29e6 3bbd
00000170: d010 03bd bc72 a33d 7f62 5abd 8f5f 85bd
-0.078615725 0.078437865 0.060678117 0.0012858928 0.035497665 -0.016862376 0.058405723 -0.112212665
-0.10707464 -0.046019252 0.0061735897 0.114546485 -0.06230823 -0.0755504 -0.058641836 0.0026588263
0.0012399679 -0.07846423 -0.024722638 -0.017737247 -0.09278916 -0.041741688 -0.112910286 -0.110370934
0.081415646 0.060709924 0.08435327 0.009787619 -0.11618866 0.08199603 0.08008604 -0.10207175
-0.044277623 -0.0359629 -0.02691805 0.0523308 -0.03902074 -0.02251909 0.0690817 0.054300405
-0.038215153 0.031951983 0.08418359 -0.044612974 -0.007870269 -0.11477933 0.060912594 0.054909006
0.093855344 0.10951306 0.061530545 0.114174984 0.08249068 -0.08958746 -0.028862394 -0.10605975
0.0554361 0.066964 -0.04535959 -0.056722097 0.10591218 0.0038973058 -0.07929181 0.025595354
-0.11333314 -0.10843107 -0.06667668 -0.099192776 -0.05864584 0.05705464 0.068571165 -0.04013658
-0.05958844 0.03840278 0.057035025 0.062413096 -0.098784976 0.06367649 -0.06681668 0.093814835
-0.012539675 0.0456626 -0.005471322 0.05046853 -0.0499021 -0.052916232 0.08606856 -0.06882943
0.04114558 0.06161602 -0.0172642 -0.045873795 -0.031998456 0.07980868 -0.05331659 -0.06512367

bn.weight f4 [96]
00000000: f7bf 6d3f 302c 7f3f 94fe 743f 05d7 833f
00000010: 5315 7f3f 76e0 713f 6d59 7f3f 2b53 763f
00000020: 3bd0 753f a534 6c3f 9260 793f a2dd 6d3f
00000030: 0d2b 813f b172 763f 26ba 6d3f c41c 783f
00000040: d314 793f ff7e 713f 61c9 803f ed1d 873f
00000050: e340 7a3f 7bcb 793f f693 743f 9aa4 7d3f
00000060: 9e4c 7c3f 3412 7a3f 4825 6d3f 2984 713f
00000070: e9fa 733f 4ee1 6d3f 4d1a 733f fc9b 833f
00000080: 9530 7e3f 58b3 813f 0120 833f 8259 723f
00000090: a477 7b3f 974b 813f c53f 7c3f 5c39 773f
000000a0: 202a 753f 050d 7f3f ce83 753f 3a87 743f
000000b0: 744d 813f 4bd4 6f3f 3fb1 7e3f 60bb 733f
000000c0: 43fa 743f 0409 763f 8b30 713f bb97 6f3f
000000d0: 2ffa 703f 930b 853f 37b5 7e3f 3a09 6e3f
000000e0: 8a78 813f 3ed6 7c3f 2168 843f 4a91 823f
000000f0: 165c 7f3f d571 763f d1a6 7d3f 7792 763f
00000100: 1a5a 7f3f f172 803f 6b26 763f c039 733f
00000110: 79e9 7a3f e60e 7d3f 5125 7b3f 6398 7d3f
00000120: f8eb 7e3f 70f2 723f f5c9 7c3f 6cde 6f3f
00000130: 1cb3 783f e2a7 743f 2c17 723f 653d 753f
00000140: b611 733f 8f37 793f bf0e 7a3f 2dff 773f
00000150: e17c 7e3f 234d 7f3f ba05 733f 5dfc 7c3f
00000160: 535a 743f a504 773f 8bf2 7b3f e651 763f
00000170: 78e0 803f 1a7f 7d3f 4080 7b3f f7be 743f
0.9287104 0.996768 0.95700955 1.0299994 0.99641913 0.94483125 0.9974583 0.96220654
0.9602086 0.9226783 0.9741298 0.9291631 1.0091263 0.96268755 0.92862165 0.9691889
0.972974 0.94334406 1.0061456 1.0556008 0.9775526 0.9757611 0.9553827 0.9907929
0.9855441 0.97684026 0.9263501 0.94342285 0.95304734 0.9292191 0.94962007 1.0281978
0.9929288 1.0132856 1.0244142 0.9466783 0.9822943 1.0101193 0.98534805 0.965719
0.957674 0.9962924 0.95904243 0.9551884 1.0101762 0.9368331 0.99489206 0.95207787
0.9569437 0.96107507 0.94214696 0.935909 0.9413175 1.0394157 0.9949526 0.9298283
1.0114911 0.9876441 1.0344278 1.0200589 0.99749887 0.96267444 0.99082667 0.9631724
0.9974686 1.0035077 0.9615237 0.95009995 0.980125 0.9885086 0.98103815 0.9906065
0.9957881 0.9490118 0.9874566 0.93698764 0.971483 0.9556867 0.9456661 0.95796806
0.949489 0.973504 0.9767875 0.9687374 0.994093 0.99727076 0.94930613 0.98822576
0.95450324 0.9649146 0.98416966 0.9621872 1.0068502 0.99022067 0.9824257 0.9560389

bn.bias f4 [96]
00000000: 03d7 0dbd e469 a8b8 0e1d 25bd 08f2 09bc
00000010: bf77 3dbd eb91 33bd eaac 9abc 62de 9abb
00000020: 1d9f 803a 7c71 9fbd 10e3 4fbc b021 abbc
00000030: 1c61 9c3c 0c66 353d bb15 55bd 3b2c 01bd
00000040: be66 bebc a0be 8dbc 4814 c3bc 9c41 a1b9
00000050: ad8e 333d 9f6e 2f3c c1ff acbb cb22 883d
00000060: 301f 0a3d 89b2 92bc 5aaf 44bd 0ddc 70bd
00000070: 8579 39bd 6dca 2e3b 1cba 573b 3f46 3cbd
00000080: 44e4 3d3c 3029 e8bc 9d7f 2c3c e8d7 25bd
00000090: a059 86bb 88c1 9abc 1d4e 61bd 71ae d43b
000000a0: 77b1 05bd 59b3 b5ba f682 82bc be13 41bd
000000b0: c251 063d 6cd4 c63c 2719 7f3b e91d 13bd
000000c0: dfe5 c9bc d702 98bc 85f0 2abd 2440 6abb
000000d0: 13c1 5fbc 44ed 3e3d b811 adbc 3bef cebc
000000e0: 5cf4 89bc 0949 d239 76b5 d13b 25b9 ac3c
000000f0: 7a5f 5c3d 87fd 4fbc 41e7 da3b cbe3 88bc
00000100: 1230 b73c 1be2 d8bb 52a0 3fbd 43f6 813c
00000110: 472a 91bc 0c14 5f3d 2473 39bd 899b c43c
00000120: f91f a8bc 10fc d73c 15a8 0abd c41d 08bd
00000130: ac01 cebc d6af 343d aa51 3cbd d220 c13c
00000140: 953f 0cbd 9803 11bc 68c1 1dbd 3c47 1bbd
00000150: 00c5 af3d cfae 11bd ad36 24bd e18b af3c
00000160: ef76 4abd 2115 8e3c 2e69 4dbc 3636 013d
00000170: e8f3 ddbc 057a 49bd e276 13bd 5a6a a7bc
-0.03462888 -8.030588e-05 -0.04031091 -0.008419521 -0.046256777 -0.04384033 -0.01888128 -0.004726217
0.0009813044 -0.07785317 -0.012688413 -0.020890087 0.019089274 0.044286773 -0.052022677 -0.031536322
-0.02324235 -0.017302811 -0.023813382 -0.00030757196 0.043837238 0.0107075265 -0.0052795117 0.06647261
0.03372115 -0.017907398 -0.04801879 -0.058803607 -0.045281906 0.0026670948 0.0032917326 -0.04596543
0.011590067 -0.028339952 0.010528472 -0.040489107 -0.0041000396 -0.018891111 -0.055006135 0.0064905216
-0.032639947 -0.0013862654 -0.015931588 -0.04713797 0.032792814 0.024271213 0.0038924904 -0.035917196
-0.024645744 -0.018556042 -0.041733284 -0.0035743797 -0.013656872 0.046612993 -0.021126613 -0.025260558
-0.016840152 0.00040108737 0.0063998057 0.021084378 0.05380199 -0.012694723 0.0066803996 -0.016710183
0.022361789 -0.0066187507 -0.046783753 0.015864497 -0.017720355 0.054462478 -0.045275822 0.023999946
-0.020523058 0.02636531 -0.0338517 -0.03323151 -0.025147282 0.044113003 -0.04597632 0.02357522
-0.034240324 -0.0088509545 -0.038514525 -0.03790973 0.08582497 -0.0355671 -0.040091205 0.021429004
-0.04942983 0.01734406 -0.012537284 0.03154584 -0.027093843 -0.049188633 -0.036002047 -0.020436455

bn.running_mean f4 [96]
00000000: ac0e 02be b6d3 ec3d 2c73 013e 9a84 fcbd
00000010: 0a1b afbd c324 7d3e 49cd 97bd 8fad 72be
00000020: d358 4fbe d684 8fbd 2aa5 9ebe c64e d03e
00000030: ba2b b4bd d360 c0bd a454 cc39 2aa6 9d3e
00000040: f509 e8bd c7c0 0dbd 0771 90be a004 17bd
00000050: f85d d4bd 61d6 41bd 4ad7 1ebe 871a 48be
00000060: ac6d 7d3d 878e 05be 5d75 c63e 26ad e4be
00000070: dd03 07be de6c ebbd 18fc 153e 1dd7 c9bd
00000080: 1f64 93bd d23c eabd c888 3ebc 7547 2a3e
00000090: 2df4 74be bb15 74bd 2da8 ef3d f184 ab3e
000000a0: ec6d e5bb 6e26 9e3d fb86 ea3d 1a88 063f
000000b0: edd5 4ebe a381 91bd ee69 8e3d 064a 85bb
000000c0: e041 17bd d3fc 0dbd c56b 853e ecc0 c63e
000000d0: 9a3c 1cbd c6df 40be d072 0a3f 6f1b 553d
000000e0: 0bdc 403e 06f7 963d be15 89be 0d6d afbe
000000f0: a40d fabb 5c60 ed3e ae04 35be 7cec d93d
00000100: 4a30 91bc 3cb8 4bbe a7ce 19be 4b05 a6be
00000110: 918e b13e 9164 333e 2380 bc3d 36b8 d0be
00000120: 932a 85be 7567 cdbb af88 103f e473 28be
00000130: d965 65be 0ac7 d73c 1c3b 00bf af3f b63d
00000140: 183f 4abe 42a5 afbd 6e92 473e 2aef 14be
00000150: 50d7 a9bc c3f4 53bd 55e7 813c 5b9a 37bd
00000160: 679d 013f 1a0f 953d 4f65 58be 93a4 4cbe
00000170: cacc a0be 545e 9f3c b8fd cd3e 1e0b 773e
-0.1270091 0.11563818 0.12641591 -0.12329979 -0.08550079 0.24721055 -0.07412202 -0.2369902
-0.20248728 -0.07007758 -0.30985385 0.406851 -0.08797403 -0.09393468 0.00038972974 0.30790836
-0.11330024 -0.034607675 -0.28211233 -0.036869645 -0.103694856 -0.04732359 -0.15511814 -0.1954137
0.06187217 -0.13042651 0.38761416 -0.44663352 -0.13185067 -0.11495374 0.14646947 -0.09855483
-0.07196831 -0.11437382 -0.011629291 0.16628821 -0.2392127 -0.059591036 0.11701999 0.33499864
-0.007001629 0.07722174 0.11451527 0.52551425 -0.20198794 -0.07104804 0.06953798 -0.004067662
-0.036928058 -0.03466494 0.26058784 0.38819063 -0.03814373 -0.18835363 0.5408144 0.052028116
0.1883394 0.07371335 -0.267744 -0.34262887 -0.0076310206 0.4636258 -0.17677566 0.10640809
-0.017723221 -0.19894499 -0.15020238 -0.32425913 0.34679082 0.17518832 0.09204128 -0.40765542
-0.26009044 -0.0062684366 0.5645856 -0.16450459 -0.22402133 0.026340026 -0.50090194 0.088988654
-0.19750631 -0.08576442 0.19489452 -0.14544359 -0.020732552 -0.051747095 0.015857378 -0.04482494
0.506308 0.07278271 -0.21132396 -0.19984655 -0.31406242 0.019454159 0.40232635 0.24125335

bn.running_var f4 [96]
00000000: c327 6240 a8e4 1640 4cf3 9f3f 380d 5a40
00000010: fbcc 363f 3ab7 cf3f f687 9240 6245 ae3f
00000020: 2a3b e53f 28b8 7640 c12c 693f 9ad2 3440
00000030: fdcb 2340 3074 943f 7f96 c440 d59a 8140
00000040: 4f26 6e40 680c d43f 9364 4a3f 2870 923f
00000050: 44fa 913f 71a8 a23f 093a 5a3f b54e 0040
00000060: 5935 333f eaae 7e40 cca7 a940 2330 7a3f
00000070: de2c 0040 da1f 9d3f bac9 6640 b5f4 483f
00000080: d190 fd3f 0534 8440 a843 1140 9eae 2f40
00000090: 190d d73f 2f7d 833f e860 a740 88b9 0e40
000000a0: 5595 7f3f 5bd7 a540 9fa9 bb3f 2bba 9840
000000b0: 2e3b 4440 c49e 8940 fb14 813f 403b 4b40
000000c0: 005d 913f a391 fb3f d69c 7e40 0364 2740
000000d0: c050 4f40 adce 8740 231d 0a40 8345 3c40
000000e0: bdd7 8540 0780 8e40 8681 5a40 fff1 5c3f
000000f0: 542e 0440 baa2 5d40 e1c4 de3f 6647 0b40
00000100: 7699 443f 482d b440 9d28 8d3f 415b 6f40
00000110: ca2f 9140 5f0a eb3f fe01 9240 c38a 853f
00000120: f4e7 303f 5f18 9040 cf8a 543f 9fd7 4f40
00000130: a479 4d40 c8dd 4840 86db 5a3f 5dcd 6040
00000140: 1acd 7340 6361 1c40 abef dc3f d3ca 8d40
00000150: baca ce3f c45b fc3f 4b40 3c40 81f3 1e40
00000160: 7cd2 d63f d9b3 0b40 ba63 0540 6ecb 0d40
00000170: 5cc2 ee3f 327a 2a40 3096 1540 1923 5a40
3.5336769 2.357706 1.2496123 3.4070568 0.71406525 1.6227791 4.579097 1.3614924
1.790868 3.85499 0.91083914 2.825354 2.5593255 1.1597958 6.143371 4.0501504
3.7210882 1.6566286 0.79059714 1.1440477 1.14045 1.2707654 0.85244805 2.004804
0.7000328 3.979426 5.301733 0.977297 2.0027385 1.2275345 3.6060624 0.78498393
1.980982 4.13135 2.2697544 2.7450328 1.6800872 1.0272578 5.2305794 2.230074
0.9983724 5.1825385 1.4661139 4.7727256 3.066112 4.3006306 1.0084528 3.1754913
1.1356506 1.965382 3.9783225 2.6154792 3.2393036 4.243979 2.1580284 2.9417427
4.1825852 4.4531283 3.4141555 0.86306757 2.0653276 3.463057 1.7403833 2.1762328
0.7679666 5.6305275 1.1028019 3.7399447 4.5370836 1.836254 4.562743 1.0432972
0.6910393 4.502975 0.83024305 3.2475355 3.2105494 3.1385365 0.85491216 3.5125344
3.8093934 2.443444 1.7260641 4.431009 1.6155617 1.9715505 2.9414241 2.4836123
1.6782985 2.182852 2.0842118 2.2155414 1.8653064 2.6637082 2.3372917 3.4083922

fire1.squeeze.weight f4 [64, 96, 1, 1]
00000000: 0136 b0bd ee47 3bbd c0ec d1bd cb84 0e3c
00000010: 3563 443d fa53 21bd 80df 873c 6a9d 583c
00000020: 1271 403d 4b2f bd3d 2773 2bbb 3372 7abd
00000030: e8b4 1abd 461a c6bc 27c5 4dbd 2850 dabb
00000040: 34e5 70bd bdf7 343d 7850 b2bd 05e8 b33d
00000050: 3e40 09bd 98bd a0bd 082b e23c 549e debd
00000060: 56b1 ad3d 559c 153d 11b1 933c 72c5 97bd
00000070: 05ef 093d 2975 cdbd 9f0e 9f3a f150 673d
00000080: 824d 2139 09a3 a8bd 3685 b1bc dffe c4bd
00000090: 0806 51bc dd9d afbd d72b f93c fa83 b83d
000000a0: 12f6 88bd 2734 96bd ad29 4a3d fc7e 573d
000000b0: aa10 82bc 5191 753d 458c f8bc ee3d 7c3d
000000c0: 9ce6 9dbd 39bd f4bc aed8 fb3c d232 13bd
000000d0: 7966 b53d 6964 923d 2ee6 8fbd 43dc 823d
000000e0: 52e0 91bd 800c aa3c b970 cebd 88d4 003c
000000f0: 15d2 ec3c 823d 4d3d 96d2 c7bc 415f 8fbd
00000100: 5b1a 3dbd 77cf 983d be58 95bc 3730 903d
00000110: a1ef 623c 25a2 d0bd d7f6 943d c793 79bd
00000120: a6c8 803d 1847 bcbc bcea 58bd 6fda 7c3d
00000130: 3f6d a4bc 16b4 c7bd 5eef b43d 6a9a be3d
00000140: eba9 e0bd ebca af3c 6a71 02bd 96e8 68bd
00000150: 65fb 98bd 3dc9 cebd bf0f aebd 0b1c 8d3d
00000160: 1450 35bd 6069 03bc aeaf 603c 0196 4e3d
00000170: 8255 82bd 57e2 9ebc ad6a 4ebd 41a2 c33c
00000180: 039b 95bb 264f bc3d 4724 4abc c4b7 babd
00000190: 984c f23c c8f9 273d 8412 58bc 7f25 ddbb
000001a0: f4f9 773d bb81 b2bb 7dad 0fbc 3b15 363d
000001b0: 8dd8 2f3d b479 fdba 6600 033d 7161 59bc
000001c0: 51db 83bd e1bd 6c3d f255 443d bb7a eb3c
000001d0: bfcf 92bc 84b6 a6ba 61a8 a0bd 0e07 043d
000001e0: 997c e53c cbf1 42bd b677 e2bd f8e0 61bb
000001f0: a573 0f3d 5601 9abd a456 4a3d ce42 5abd
00000200: 041f 6abd 46df b83d 72f1 89bd 5fde 673d
00000210: 9c07 573d b6b0 6cba 796c 4bbd d2c3 04bd
00000220: 275e 673d 53d1 9fbd bd5a b43d b0a3 443c
00000230: 07b7 adbd 8dbb 313d 0390 963c b96b 33bd
00000240: aa56 9fbd 8362 903d 844d adbd 374e 88bd
00000250: 60b4 81bc a228 40bc 0b57 c2bd 6e66 613d
00000260: 1d55 d4bc 98f2 8b3c d0c4 1dbd eb3f 28bd
00000270: acfa d1bd 8ac4 763d 8e19 623c cb1b 8b3d
00000280: 7053 a7bd 001d 443b 27c6 95bd eb81 b7bd
00000290: 1c87 22bd 106a 253d cdf3 143c ac45 b5bd
000002a0: cf91 9abd bee8 b33d a0bc f23a e975 04bd
000002b0: 626e 813d 7a44 5dbd fcca 7bbc ed2e 293d
000002c0: e27e e3bd 0967 3e3d d3e4 5b3d 9a8e 97bd
000002d0: cd5d d2bc d521 3abc 5b8c 173c 1680 07bd
000002e0: 5c96 d0bd a59f 48bb c026 333c 654f 7cbd
000002f0: cefd 6d3d 6e0c 27bd 3d1f 5c3d 7533 cdbc
00000300: 5624 a3bd 4004 cdbd 1220 4d3d 9f72 dbbc
00000310: 022c ba3d d148 963d 86bb ecbd 20d0 063d
00000320: 5186 84bd 9f73 fb3b 5feb d3bd 9ad8 fa3c
00000330: 4874 aabd 4d8e 4f3d 16dd 833d 6491 8b3c
00000340: 4833 fabd aa43 37bd ba9e 24bd a62b aebd
00000350: 09a4 c9bc 361b 05be 85f0 1e3d 4428 e3bd
00000360: cf9d cfbd 566c 303c 8c72 623d 5347 05ba
00000370: c126 e2bd f261 873d 4450 f63c be86 003d
00000380: 9c4a 0fbe 06e3 b0bd 321c b3bd 5c63 6e3d
00000390: 9e54 ffbd fa0e a93c 6678 e2bb 4574 d93c
000003a0: f956 ebbb fd88 e0bd 146b 213d 8e77 8dbd
000003b0: 746a 89bd 34e4 8f3d 4320 b0bd c3cc a1bd
000003c0: c2a7 a7bd 5297 4a3d a9a2 23bd 5b23 c3bc
000003d0: 9747 1c3d b171 edbd 1623 573c 7018 0a3d
000003e0: 7e35 52bd e29c 853d d8aa 22bd 1f7f 6b3a
000003f0: d3cf 38bd 433d 943d d2aa 30bd 2628 dbbc
-0.086040504 -0.045722894 -0.102502346 0.0086986525 0.047946174 -0.039386727 0.016586065 0.013221124
0.046982832 0.09237536 -0.0026161165 -0.061144065 -0.037770182 -0.02418245 -0.050236847 -0.0066623874
-0.058812335 0.044181574 -0.087067544 0.087844886 -0.03350853 -0.07848662 0.02760841 -0.108700424
0.0848109 0.036526043 0.018028768 -0.074107066 0.033675212 -0.10032112 0.0012135095 0.056473676
0.0001538303 -0.082342215 -0.021669965 -0.09618925 -0.012757786 -0.08575032 0.030416412 0.090095475
-0.06687559 -0.07334166 0.04935615 0.052611336 -0.015877087 0.059953038 -0.030340323 0.0615825
-0.07710001 -0.029875385 0.03074297 -0.035937138 0.08857436 0.07148058 -0.07026325 0.06389668
-0.07122864 0.020757914 -0.10080094 0.007863171 0.028908769 0.050107487 -0.024392407 -0.0700059
-0.046167713 0.07461446 -0.018230792 0.07040446 0.013851077 -0.101871766 0.072736435 -0.060931947
0.06288271 -0.022983119 -0.052958235 0.061731752 -0.020071624 -0.097511455 0.08834718 0.09306796
-0.10969909 0.021459064 -0.03184644 -0.056862436 -0.07469825 -0.10096977 -0.08499097 0.068901144
-0.04426582 -0.008020729 0.01371376 0.050436024 -0.063639656 -0.019395037 -0.050394703 0.02388108
-0.004565598 0.09194784 -0.012337751 -0.09117082 0.029577538 0.041009694 -0.013188008 -0.0067488546
0.06054111 -0.005447594 -0.00876939 0.04445384 0.04293113 -0.0019338639 0.0319828 -0.013267861
-0.06438316 0.05779827 0.047933526 0.028745046 -0.017921327 -0.0012719189 -0.07844616 0.03223329
0.028013514 -0.047593873 -0.11057989 -0.0034466367 0.035022397 -0.07519786 0.049399033 -0.053286366
-0.057158485 0.09026961 -0.06735505 0.056608554 0.05249749 -0.00090290175 -0.049663994 -0.03241331
0.056486275 -0.07803597 0.088063695 0.012001917 -0.08482175 0.043391753 0.018379217 -0.043803904
-0.07780202 0.070500396 -0.084620506 -0.06655543 -0.01583308 -0.011728438 -0.094892584 0.055029325
-0.025919491 0.017083451 -0.038517773 -0.041076582 -0.1025289 0.060246028 0.013800038 0.067924105
-0.08170211 0.0029924512 -0.07313185 -0.08960327 -0.03967963 0.040384352 0.00909133 -0.088511795
-0.07547342 0.087846264 0.0018519349 -0.03233901 0.06319882 -0.054020382 -0.015368219 0.041304518
-0.11108185 0.04648498 0.05368502 -0.07400246 -0.025679493 -0.011360605 0.009249772 -0.033081137
-0.10184929 -0.0030612734 0.010934532 -0.061599154 0.058103375 -0.04078334 0.05374073 -0.02504895
-0.07965915 -0.10010576 0.050079413 -0.026788054 0.09090425 0.073381074 -0.11559205 0.032913327
-0.06470931 0.007673695 -0.10347628 0.030620862 -0.0832296 0.050672818 0.06438653 0.017037101
-0.12216812 -0.044742264 -0.040190436 -0.08504419 -0.02461435 -0.12998661 0.038803596 -0.110916644
-0.101375215 0.010768017 0.05528502 -0.00050841755 -0.11042548 0.066104785 0.03006757 0.0313785
-0.13993305 -0.08637051 -0.08745612 0.058200225 -0.12467311 0.020637024 -0.0069113253 0.0265447
-0.007181999 -0.109636284 0.03940876 -0.06907569 -0.067097574 0.07025948 -0.085999034 -0.07900383
-0.08186294 0.049460717 -0.039950047 -0.02382057 0.03815421 -0.115939505 0.013130924 0.03371471
-0.051320545 0.06524064 -0.03971371 0.0008983481 -0.04512007 0.07238247 -0.043131657 -0.026752543

fire1.squeeze.bias f4 [64]
00000000: 2bfd 5ebb 122f 4b3c b582 9dbc 9eca be3d
00000010: ad1f 31bd cdda 94bd 7308 b2bc 6945 bc3c
00000020: e764 ed3b 3009 f93d 78bb 2b3d 9e82 6a3d
00000030: 859d dd3c 6f1b eebd 4eb7 debc 63ac 38bd
00000040: 62f9 903d 543b 7c3d 97f7 2f3b 36df 9cbd
00000050: 975a 0cbd 6d41 b5bd e3ed f4bd ff50 48bd
00000060: d564 913d a53b 043d 3ee6 103d 4cd4 ae3d
00000070: 5f3a 48bd 6ad2 de3d 21b6 a7bd 64fe 3dbc
00000080: 1b0b 70bd 34da a23c 6c37 86bb d335 683c
00000090: 3517 04bd a97a 34bd 56f6 653d c49f 193c
000000a0: 4a00 d23c 465f ccbd e895 c6bd 3417 643d
000000b0: d4d8 e03b f495 86bd ee0f bfbd d840 3d3b
000000c0: 4909 1abd 19a4 babd 38b7 bebd 4160 353d
000000d0: 69de 793d a75a ce3d 6136 89bd 9e10 493d
000000e0: e2e7 dfbc 38eb 16bc 2478 e9bd 2a6d b4bc
000000f0: 7e67 18bd 9eaa f0bc 9e52 24bb 7fcb 43bc
-0.0034025412 0.012401359 -0.019227365 0.0931599 -0.0432431 -0.072682954 -0.021732545 0.022982316
0.0072446945 0.121599555 0.04192683 0.057253473 0.02705265 -0.11626326 -0.027187016 -0.045086276
0.07078816 0.061580017 0.0026850456 -0.076597616 -0.03426608 -0.088503696 -0.11959436 -0.04890537
0.0709931 0.032283444 0.035375826 0.08536586 -0.048883792 0.10879977 -0.08189035 -0.011596296
-0.05860434 0.019879438 -0.0040959623 0.014172989 -0.032248694 -0.04406229 0.056143127 0.00937647
0.025634903 -0.099791095 -0.09696561 0.05568619 0.0068617854 -0.0657157 -0.0932921 0.0028877761
-0.03760651 -0.091133304 -0.0931229 0.044281248 0.061003122 0.10075884 -0.06699825 0.049088113
-0.02733225 -0.009211354 -0.11399868 -0.02202471 -0.037208073 -0.029378232 -0.0025073658 -0.011950373

fire1.expand1x1.weight f4 [32, 64, 1, 1]
00000000: e60d 16bc b504 533d 70ee 31bd 873d d33d
00000010: fc0b 80bd 1a2a 0c3d 17a8 d8bd 02cc fc3c
00000020: 3b95 de3d 857f c8bd c087 843d e3b7 443d
00000030: 08c3 ca3d 7923 ed3d 3e9c 95bd 87dc e63d
00000040: 5606 51bd 632d efbb 17b9 073d 6380 50bd
00000050: 747e 4bbc 367a ec3d 53aa dabb 7d17 4ebd
00000060: 09b3 2abd 1928 443d 7557 8bbc f58e 63bd
00000070: a851 4e3d a6d3 153d c5e4 963d cbb3 1a3c
00000080: d15b 413d 1ba7 2cbd 5cea 633d 3430 153c
00000090: 19cb cc3d d070 983a f358 c1bd 6764 81bb
000000a0: 394f 813d efcb c43d 55f7 d3bd a872 eb3b
000000b0: 7576 8f3d 65c4 38bc 0978 8b3b 4a2f 453d
000000c0: 3d48 ff3d 758d a13d 48cc 173e bfdb c23c
000000d0: e2b4 b43d 20aa 26bd 1b48 60bd 7dc3 be3d
000000e0: 414e bdbd b8af f93d d8c3 e73c 65bd 4dbd
000000f0: 0f8b f5bb 32d5 5abd f07e 58bc 1747 9d3d
00000100: bb17 92bd 5271 aebd 817d d5bd f5d0 7a3c
00000110: 4e50 df3b bbe0 1dba d138 ba3d 139a a43c
00000120: 8b36 763b a993 64bd 2c04 72bc 92b6 753d
00000130: dfaf 8c3c 73d5 11be 6ad8 e2bd e219 953d
00000140: 5073 31bd 85aa d9bd 797a 83bc fcd8 7e3d
00000150: 2fec f3bd db83 563b 5742 06be 2519 7ebb
00000160: 5e9a de3d 1137 e6bc 3e30 d3bd c201 d6bb
00000170: 4797 d0bd c1d6 c73b ee3e 30bd 437e 5d3d
00000180: 631b bf3c 887e 87bd 4443 bc3d 4654 a53a
00000190: 22c4 8b3d 3f5b b1bd 717b 863d 13e4 633d
000001a0: f847 d0bd 67c4 9cbd 7dc8 aa3d 2360 123d
000001b0: e097 e1bd 37bf a43d 2314 c8bd 0d38 773b
000001c0: 5267 02be 7b45 73bd 508f fa3b 7a88 f1bc
000001d0: 1ab9 d83c 8254 7e3c a586 ae3c 04f2 d93c
000001e0: 658d 163d e7a5 14be c6f7 603d 0abe b9bd
000001f0: 50b8 74bd 2ea1 debc 69f4 b9bd 0cd8 dbbd
00000200: 5e66 da3d 5222 83bd c89f 1f3d 786b a8bd
00000210: 9fe2 f8bd e57e a8bd 89b7 9a3d 90a8 81bc
00000220: d939 b1bd fe29 393d a2c7 0f3d 326c d1bc
00000230: 19ef ddba 5a3f 6fbd 46c8 6ebd bcab cfbd
00000240: ef85 e2bd 339d 953d fe3a 393c 197b cd3d
00000250: 2660 50bd 58e2 73bd 3754 31bb b18f ffbd
00000260: 35c0 aa3d ecfc 94bc c6e3 e03d a054 2ebd
00000270: d035 473d a7f8 da3d 0d61 c93d 105a d13d
00000280: 7c41 523d 4d97 a5bc de48 1abd eaf2 cdbd
00000290: 52bc 663d 01c3 c3bd bd43 af3d 9de0 ecbd
000002a0: 8dda c3bd 9304 24bd f29b d1bd f8e9 d83d
000002b0: 89ee ac3d a1a2 6cbc 5278 5d3b ec7e c53d
000002c0: 0c65 09be f3ef 813d 6c1c 413d bc2d 9d3d
000002d0: 5a12 3ebd 22b0 f7bd 24ac adbd 1ef0 eb3d
000002e0: 7f18 fb3c 1445 483d 427d 593d 7461 7bbd
000002f0: cc0f 00be c9d2 87bd 16cd dcbd 48b4 b23c
00000300: 2b66 153d f5ed fdbd b647 833d 2a01 b8bd
00000310: 480c 91bd 9e7b 9d3d c738 703d bb87 e73d
00000320: c3e2 913d d5fd e0bd 70ce b23c 353c 34be
00000330: 62dd 7fbd 314c 893d 5968 61bc 56d3 ba3c
00000340: 081e e0bd b881 88bd c360 30bd 36c8 5b3c
00000350: a7d6 5f3c dc72 29be 8baf 9d3d b5d4 01bd
00000360: 16ac 0a3e f79d d43d 691b c7bd b7a6 bfbd
00000370: d98d fcbd 08b1 bfbd fe34 8f3d 9bce 963d
00000380: 90da 02be ad34 b03d d6af f03c 1f44 debd
00000390: 2b48 933d 8d2c 8c3d 2392 3fbd 4231 343d
000003a0: 68cf 20be 7e5a aa3d f434 85bd 581b fdbd
000003b0: 9b17 653d 336b 8ebd dd68 923d 9140 3fbd
000003c0: 4c5a c13d 51d3 cc3d 764f 913d 3c21 893d
000003d0: e387 803d 249b 6b3d f6c7 c13d 28e8 27bc
000003e0: 6811 ec3d fa2c b3bd dd71 373d 102e 2dbb
000003f0: 8bc6 c03d 3e04 a93a b88f cebd 2957 423c
-0.009158587 0.05151816 -0.043440282 0.1031447 -0.06252286 0.03421984 -0.105789356 0.030858997
0.10868307 -0.097899474 0.06471205 0.04802693 0.099004805 0.115790315 -0.073051915 0.11272531
-0.051031433 -0.0072991117 0.0331355 -0.05090369 -0.0124202855 0.115467474 -0.0066731363 -0.05031537
-0.041674647 0.047889803 -0.017009476 -0.055556256 0.050370842 0.036578797 0.07367853 0.00944228
0.047206704 -0.04215155 0.055643424 0.009105731 0.09999675 0.00116303 -0.09440794 -0.0039487365
0.06313939 0.0960921 -0.10349909 0.007185299 0.07005016 -0.011277293 0.0042562527 0.0481408
0.1246495 0.07888309 0.14824021 0.023786424 0.08823563 -0.040689588 -0.054756265 0.0931463
-0.092434414 0.12191719 0.028291628 -0.05022945 -0.0074933837 -0.053425975 -0.013213858 0.07679575
-0.071334325 -0.08517708 -0.104243286 0.015308608 0.006814993 -0.0006022562 0.09092868 0.020093
0.0037569131 -0.055804882 -0.014771502 0.059988566 0.017173706 -0.1424158 -0.11076434 0.072803274
-0.04332286 -0.10628227 -0.01604961 0.06221865 -0.11910283 0.00327324 -0.13111244 -0.0038772312
0.10869287 -0.02810243 -0.10311936 -0.0065309713 -0.10185104 0.0060985987 -0.043028764 0.05407549
0.023328489 -0.06615931 0.091925174 0.0012613616 0.06824519 -0.08659982 0.06566513 0.05563743
-0.10169977 -0.07654648 0.08339021 0.035736214 -0.11015296 0.08044284 -0.09769466 0.0037722618
-0.12734726 -0.059392434 0.0076464787 -0.029484022 0.02645545 0.015523078 0.021304438 0.02660466
0.036755938 -0.14516412 0.054923795 -0.0906945 -0.059746087 -0.027176466 -0.09079821 -0.10734567
0.10664056 -0.064030305 0.03897074 -0.08223623 -0.121525995 -0.08227328 0.07554538 -0.015827447
-0.08653612 0.045206062 0.035102494 -0.025564287 -0.0016932219 -0.058410026 -0.058296464 -0.101401776
-0.11060702 0.07305374 0.011305569 0.10033245 -0.050872944 -0.05954203 -0.0027058253 -0.12478579
0.08337442 -0.018187009 0.10980944 -0.042561173 0.048635304 0.10691958 0.09832964 0.10222256
0.051331982 -0.020213747 -0.037667148 -0.10056098 0.05633194 -0.095586784 0.08557842 -0.11566279
-0.0956317 -0.040043425 -0.10234822 0.10591501 0.084439345 -0.014443071 0.003379364 0.09643349
-0.13417453 0.06344595 0.047146246 0.07674739 -0.04640422 -0.120941415 -0.08480099 0.11520408
0.03065133 0.048894003 0.05309797 -0.061372235 -0.12506026 -0.06632001 -0.107813045 0.02181448
0.036474388 -0.12398902 0.06410162 -0.08984597 -0.070824206 0.07689594 0.058647897 0.113051854
0.071233295 -0.109859146 0.021826953 -0.17601092 -0.062466986 0.067039855 -0.013757789 0.022805851
-0.10943228 -0.06665367 -0.04306103 0.013414433 0.013662017 -0.16547722 0.07699498 -0.031696994
0.13542208 0.10381692 -0.09722025 -0.0935797 -0.12331743 -0.09359938 0.06992529 0.073636256
-0.12778687 0.08603797 0.02938072 -0.10852837 0.07191499 0.06844435 -0.046770226 0.04399229
-0.15704119 0.08318041 -0.06504241 -0.12358731 0.055930715 -0.069540404 0.07148907 -0.046692435
0.09441051 0.10001243 0.07095234 0.06695792 0.06275918 0.057521 0.09461968 -0.010248221
0.115267575 -0.08748813 0.044786323 -0.002642516 0.09412869 0.0012894941 -0.10086006 0.011861601

fire1.expand1x1.bias f4 [32]
00000000: 2941 993d 1225 00be 3a94 023d 8502 44bd
00000010: 9baa 293d 316d 0a3d 5437 e83b 6794 173c
00000020: 945d 2ebc 3c07 043c 23e9 1cbd db0b d83d
00000030: 7d47 debb 9c37 7ebc 00ed ee3d 74bd 8a3c
00000040: 355c b4bd 7629 303b 030f 2a3d 2b44 5d3d
00000050: 9bb5 053e 2037 29bd 99d6 9bbd f59c 33bb
00000060: 29de 95bd e5c6 003d 6a50 efbb 9a60 043e
00000070: 86e8 9d3c e287 a5bd 38c8 f23c e913 98bd
0.074831314 -0.12514141 0.03187964 -0.047853965 0.041422468 0.03379554 0.0070866738 0.0092516905
-0.010642428 0.008058365 -0.038308274 0.10549136 -0.0067834244 -0.015516188 0.11666298 0.016936041
-0.088066496 0.0026880181 0.041518223 0.05402009 0.13057558 -0.041312337 -0.07609291 -0.0027406786
-0.07317764 0.03143968 -0.0073032873 0.12927476 0.019275915 -0.08082558 0.029636487 -0.074256726

fire1.expand3x3.weight f4 [32, 64, 3, 3]
00000000: ff43 74bc d0e4 e03c ed39 333c 42d8 0a3c
00000010: 918b fdbb b806 e33c 0611 e2bc 934a d4bc
00000020: 474a 55bc eff5 063d 2d60 253b 0c49 913a
00000030: 2f7e 243c 74de f5ba 9cd4 e2bb 16cb 253c
00000040: deed a9bc f1d4 68bc 46eb c33c 5214 013b
00000050: e6e7 2bbd 45bf 9dbc f166 29bc 7025 24bd
00000060: 6f96 09bc a3e8 17bd 2e95 323c 854e 83bc
00000070: ebd1 3ebb 03bc 02bb a4be 4dbc 5bc2 c23c
00000080: 7065 3cbd a58b a93a 578c 973a e0c5 09bd
00000090: 8191 8ebc 45af afbb 3403 6a3c fa3e 52bc
000000a0: 8440 5abc cb1c c43b 3110 063c cea4 61bd
000000b0: 6924 20bd ba86 8f3c 775b a8bc 35b3 0ebd
000000c0: 51b7 143d 85e4 003d 4bdc 833b d887 6e3b
000000d0: 8248 893c f559 b8bc 6c9f d8bc c55a 35bd
000000e0: 1934 d7bc a19a 9fbc 12a7 d43b 7dff 5f3c
000000f0: d235 81bc 6466 043c 44ce 18bd 62aa 183d
00000100: 8db6 dabc 8cc3 223d 4a6b 2b3d 29ef 113d
00000110: e522 09bd 2479 13bd 23a1 273d 7d38 26bc
00000120: 18a1 243a 337f ab3c 89d5 f2ba 14b8 5d3c
00000130: 205b d3bc 006b 393b 2671 1ebc c9ef f43c
00000140: 1a1d 23bd 16cb cb3c a102 c1bc 0881 34bc
00000150: d1d6 b2ba 43c7 ba36 70d6 7abc 22c5 903c
00000160: 2187 47bc f6b9 eb3c 2178 4abc 745e 01bd
00000170: a44d a6bc 118b 8dbc 45a5 c2bc c23a 5abc
00000180: 5aa4 4e3c 644e d0bc 862b 3cbc 9cc0 6cbc
00000190: 97e0 1cbd b905 50bd 26b7 1cbd ddfd 1cbd
000001a0: 734c 04bd ff1f 003a f75f 99bc 2ef1 87bc
000001b0: f131 db3c 86af b33c 1a9e 93bb 5196 1cbd
000001c0: fd22 ca3c b94e adbb 4d16 f53c e2e9 22bd
000001d0: fa52 1abd 2e9b 7a3c b003 0b3d 81e8 3c3c
000001e0: 7249 013d 4496 e8bc d707 033d e71f 943c
000001f0: f693 cdbc e8e9 873c 3bbf 00bd d9d2 253d
00000200: fdcc d93c bb55 d2bb 19d1 333d c30a 36bd
00000210: 239c 453b 79d6 8b3b 62f2 273c 3453 c83c
00000220: dcb9 89bb f038 073d 5ef9 bb3c 3b65 e9ba
00000230: 47c2 f2bc 7d62 683c af02 97bc fd00 163c
00000240: 336b 13bd 6255 21bd ba55 d1bc 3f30 53bd
00000250: fb0a 023d 046c a33c 4e68 3d3d 7ca6 e1bb
00000260: bfb3 073d 0f63 aabc aa4a 553c c968 53bc
00000270: 16b6 b9bc 68da b93b cf92 0e3d 75a2 74bc
00000280: e33a bbbc fcb6 363c a01b b6bc f024 e8bc
00000290: 0498 333d 6cba 9bbc ed5d 33bd 411d 183d
000002a0: 0737 55bc a902 d3bc 343e 8c3c bfd2 e33c
000002b0: 5fd5 1f3c ddb5 1bbd a5bf c73c 2e13 2dbc
000002c0: 9896 033d d1dd febc f4b4 28bd 53cf 6d3c
000002d0: 095b 1abd ae90 ddbc fe6f 8ebc 469f 56bd
000002e0: 770c c43c 557a 803a 69e4 593c b49e d73b
000002f0: 827e 8ebc c4db 6d3c 3667 a9bb 1655 e1bc
00000300: 11b9 d3bc d45a ebbb f852 20bd 340c 81bc
00000310: a839 7fbc a2d7 0cbd ab9e 143d 6303 043c
00000320: 662c 25bd 855d cebc de65 c0bb 9c30 25bc
00000330: 4bb5 b23c d0a9 873c 05d1 3bbc 867d 06bd
00000340: 99c7 c53c 924c 6abc 8d51 55bc 5286 c43b
00000350: 09d0 66bd cba7 11bc e992 cdbc 8e69 52bd
00000360: 16a6 783b 0cd3 cbbb 3319 dc3c 6c3c ca3c
00000370: 38ab febb 1ac6 fcbc b607 863c 68e3 f43c
00000380: 1e83 343b 3d4c 2dbd 4e97 d93c def1 45bd
00000390: b944 503b 0027 3bbd 6ba7 4c3c f876 b63c
000003a0: 521b d13c 79c5 6dbc 11c4 0cba 2b7a 37bd
000003b0: dea6 a23b ce9b 10bb 676e 3c3c b6f0 64bd
000003c0: c9b1 84ba a6c4 e8ba 61da 853b 3bcf 123d
000003d0: 5232 c2bc ac47 073d cc76 debc 9d2c 133d
000003e0: 6575 983c 52cc 53bc 1e7b fabc ddb2 f63c
000003f0: 7544 2b3b 7e75 993c 34b3 f53c a007 8b3b
-0.01490879 0.027452856 0.010939104 0.008474411 -0.007737585 0.027713165 -0.027596008 -0.025914466
-0.013018197 0.032949384 0.0025234327 0.0011084392 0.01003985 -0.0018758313 -0.0069223177 0.01011922
-0.020743307 -0.014210925 0.023915898 0.001969595 -0.041969202 -0.019256243 -0.010339485 -0.040074766
-0.008397683 -0.037087094 0.010899825 -0.016028652 -0.002911682 -0.001994849 -0.012557659 0.023774317
-0.045995176 0.0012935294 0.001156221 -0.033635974 -0.017403366 -0.00536147 0.01428299 -0.012832398
-0.013321046 0.0059848777 0.008182571 -0.05508881 -0.039097223 0.017520297 -0.020551426 -0.034838874
0.036307637 0.031467933 0.0040240637 0.0036396887 0.016758207 -0.022503832 -0.026443206 -0.044276018
-0.02626996 -0.019482912 0.006489643 0.013671753 -0.015772734 0.008081052 -0.037306085 0.037271865
-0.026698375 0.03973727 0.041850366 0.03562847 -0.033480544 -0.0360042 0.040925156 -0.010145304
0.00062801084 0.020934677 -0.0018526773 0.013532657 -0.025800288 0.0028292537 -0.009670531 0.029899495
-0.039822675 0.024877112 -0.023560824 -0.011017092 -0.0013644343 5.566429e-06 -0.015309915 0.017672125
-0.012178213 0.028775197 -0.0123577425 -0.03158422 -0.020300694 -0.017278226 -0.023760447 -0.013319673
0.012612427 -0.025428005 -0.011484986 -0.0144502185 -0.038300123 -0.050786708 -0.0382606 -0.03832804
-0.03229947 0.000488758 -0.018722517 -0.016594496 0.026757212 0.021934282 -0.004504931 -0.03822929
0.024674887 -0.0052889255 0.02991786 -0.03977383 -0.03767679 0.015295787 0.033939064 0.011530043
0.031564184 -0.028391965 0.0319899 0.018081618 -0.025094967 0.016591027 -0.03143237 0.040484283
0.026587004 -0.0064189113 0.043900583 -0.044443857 0.003015288 0.0042675105 0.01025066 0.024453737
-0.0042030644 0.033013284 0.022946056 -0.0017806658 -0.029633654 0.014183638 -0.018433897 0.009155509
-0.035990905 -0.039388068 -0.025553573 -0.051559683 0.031748753 0.019948967 0.04624205 -0.0068863016
0.033130404 -0.020799188 0.01301829 -0.012903401 -0.022669833 0.005671788 0.034807976 -0.014931311
-0.022855228 0.011152025 -0.02222997 -0.028337926 0.043846145 -0.019009791 -0.043790746 0.037137274
-0.013013608 -0.025758104 0.017119505 0.027810453 0.0097554615 -0.038015235 0.024383375 -0.010563655
0.03212604 -0.03111163 -0.041188195 0.014514762 -0.037684474 -0.027046528 -0.017387386 -0.05239799
0.023931725 0.0009802083 0.013299086 0.006580198 -0.017394308 0.014517728 -0.0051697744 -0.027506392
-0.025845082 -0.0071824584 -0.039141625 -0.01575289 -0.015577711 -0.03438533 0.03628413 0.008057448
-0.040325545 -0.025191078 -0.0058715185 -0.01008239 0.021814963 0.016560465 -0.011463408 -0.032834552
0.024143027 -0.014300482 -0.0130199315 0.0059974575 -0.05635074 -0.008890103 -0.025094466 -0.051370196
0.0037940792 -0.006220227 0.026867485 0.024687015 -0.0077718757 -0.030856181 0.016361099 0.029893592
0.0027543972 -0.042309035 0.026561406 -0.048326366 0.0031779243 -0.04569149 0.012491087 0.022273526
0.025525723 -0.014512413 -0.00053697923 -0.044794243 0.00496374 -0.0022065523 0.011500931 -0.055893622
-0.0010123785 -0.0017758801 0.0040848707 0.03584216 -0.023705635 0.033027336 -0.027156256 0.03593122
0.018610666 -0.012927132 -0.030576285 0.030114586 0.0026133333 0.018732782 0.029992677 0.0042428523

fire1.expand3x3.bias f4 [32]
00000000: 1d04 1ebd 114b 093c fef9 fcbc b4a2 e5bc
00000010: 03f8 fabc 6b93 25bd d714 2e3d 7345 573d
00000020: f71f 33bd 2365 07bd 63e1 13bc 73fe ec3c
00000030: c9a7 3abd da93 2ebd 522c 50bd 7361 b63c
00000040: 2b0b 7f3d a3b0 0cbd f1c1 20bd 2234 bcbb
00000050: 8288 86bc 3d0e 2fbb d44e 25bd 93c0 b9bc
00000060: f296 10bd ff18 0dbd c5ef 033c 6a42 5abd
00000070: f5a6 ae3d f582 34bd cd6d d33b 29e4 fe3c
-0.03857814 0.008379714 -0.030880924 -0.028031684 -0.03063584 -0.04042379 0.042500343 0.052556466
-0.043731656 -0.033055436 -0.009025904 0.028929925 -0.04557017 -0.04262147 -0.050823517 0.022263264
0.06226651 -0.03434814 -0.039247457 -0.0057435194 -0.016422514 -0.0026711368 -0.04035838 -0.022674834
-0.035300203 -0.034447666 0.008052771 -0.053285994 0.08527938 -0.044070203 0.0064522983 0.031114655

fire2.squeeze.weight f4 [32, 64, 1, 1]
00000000: 2b74 5e3d 02ad cf3b acbb d33d 3864 013e
00000010: 5bd9 eb3c 9845 14bd 8179 8a3b e8e2 ce3d
00000020: 1926 d9bd 816b aebd a629 f6bd 99df 043e
00000030: d23a 99bb 0c03 993a 861b 31bd 4439 c4bd
00000040: 4b03 23bd 6845 d3bd ee74 e43d 6f6e 063e
00000050: bf37 0d3e c5c4 52bd cffd 0c3d 7793 d53d
00000060: 7d31 0dbe 900b c5bd ac2d 02bc 3090 833d
00000070: bc45 cdbd d098 ac3b 1943 643d 5db5 72bd
00000080: 565e c7bc 8fae 46bd d9c9 8b3c 2447 373d
00000090: e87c bcbd 5a13 3cbc 4705 b83d 8043 c63c
000000a0: 9bd5 7cbd 6bcd 8dbd d8b5 263d b632 273d
000000b0: 2e95 ab3c 8d2a e8bd 6aa9 02be 2863 843d
000000c0: 7705 853b 206d 85bd 4fe3 d03d 8c52 dd3b
000000d0: cfa5 dd3c 07f1 5ebd 58c2 b33c 717f 56bc
000000e0: c9be 923d b4e7 a5bd f77f 933d 5e07 b73b
000000f0: 9379 333d e9f1 c4bc 2c34 373d b419 ba3d
00000100: 7b69 07be e2ef bcbd b6b1 863d 28c9 f5bc
00000110: 705d a0bd e6c8 653d f003 24bd c883 11bc
00000120: 3b3e 6ebd 696b cabd 54e4 653c 45c8 e9bd
00000130: 7240 903d f956 733d a448 7b3c 28ac c5bd
00000140: a4fc ea3c 1ae4 903d 22e3 033b 4e25 833d
00000150: 5243 98bc 531e 89bd 0bd4 6e3d 568b f2bd
00000160: b8e1 d63c ea2b e4bc 1e44 a23a f847 15be
00000170: f047 99bd 5f0e 5ebd a312 913d 2e58 903d
00000180: ea00 2b3d da87 b63d 3a89 82bd dc5e 94bd
00000190: e3ab d73d 66d1 4dbd 9bf4 813c e422 803a
000001a0: 1c22 0b3d 304d d4bd b859 a43d 69eb 37bd
000001b0: 3383 d23d 3b9d 9abd 99ab 09be 91ab 1fbd
000001c0: ec9b 06be 8212 073c 7ebd 153d cd4a d2bd
000001d0: bd89 e33d 092a 1fbd 49e6 183c b2f7 b5bc
000001e0: f498 a93d d87e eabd d25b acbd d62d 3d3d
000001f0: f3ad fcbb 5d0d b9bc bd97 76bd 5dfc c9bd
00000200: 1e68 5a3d efa0 ee3d 5b15 2abd 6eae c13d
00000210: b9b6 a6bd 2225 9ebd 5221 3e3d c830 1ebe
00000220: 206e 96bc 55f5 87bd 6f79 bb3d bea4 57bd
00000230: 18d5 d7bc a1fd d73d 5be0 a93d 2db8 cabd
00000240: c8da 32bd 2375 c7bd d039 2d3d 2966 b8bc
00000250: 0203 9a3d 23f0 8fbc 1bd4 183a 25ea 133d
00000260: 6679 0bbe 62a8 e93c 4d6a e3bd fb47 14be
00000270: 5c4a af3d 5581 1bbd a6c0 a73c b59d dabd
00000280: 09f3 0dbe 2a8b 02bc ab32 d2bd 6d82 8c3d
00000290: cc28 e0bd c6df 5b3d cdf5 c13d df29 35bd
000002a0: 579b d0bd 4ca2 86bd 1d71 b03d 22a6 963d
000002b0: 483f 9bbc bf6c c13d 57a5 9ebd ed27 70bd
000002c0: ba76 b63d 9199 96bd cede c3bd b6b6 e7bd
000002d0: 1265 c53c 91c9 39bd c5c6 843d 505b fbbd
000002e0: e022 8dbd 022f 0bbd ca7a b03d 3e23 a63c
000002f0: 3cde c3bd c759 bdbd 4271 75bd 6abc 88bc
00000300: 7f2c 36bd 487c 433c a6e6 ec3d c62e 9e3b
00000310: 7a83 02be 6c22 50be 2160 e33d ec81 b43d
00000320: 093b 70bd 9bc7 d73c d0a3 c7bd fde6 19be
00000330: 6e0c 6e3d c267 73bd 693c 79bd dff4 a73d
00000340: adf4 b93d a32c 3b3d 3507 dfbd 8164 21be
00000350: edb2 e13a 0a72 a23d 7590 5abc 03ef 93bd
00000360: b82c 66bd 241a fabd ac77 613d 374f 65be
00000370: 2e8d 663c d64a c33d 1f09 ec3d 7486 cd3d
00000380: bcab 853d bcc2 983d d031 d93c 77b1 06be
00000390: 45ab 9a3d c959 a33d c49b d33d 3ae1 ebbd
000003a0: c218 263d 7f77 00be fd8f aabd a20f e0bd
000003b0: 5c5e 61bd 53d1 433d e905 423d 7ce3 a83d
000003c0: c8f6 0bbd 67e5 d3bd ece4 52bc c516 31bd
000003d0: 3881 2d3d 7a7f 903c b3c1 c83d 9a96 973d
000003e0: 439a 05be d799 8cbd 10fe 42bd 2d97 313d
000003f0: 8b60 04bd 69d4 823d 98e8 88bd 586e 023d
0.054310005 0.006337763 0.1033853 0.12635887 0.028790167 -0.036199182 0.00422591 0.10101873
-0.1060297 -0.085165985 -0.120196626 0.1297592 -0.0046762014 0.0011673882 -0.04323914 -0.09581235
-0.039798062 -0.103159726 0.11155115 0.13128065 0.13790797 -0.051457185 0.03442174 0.10428517
-0.1378841 -0.09621346 -0.007945459 0.06423986 -0.100230664 0.00526724 0.05572805 -0.059254993
-0.024336975 -0.048506316 0.017064022 0.04474558 -0.092035115 -0.011479223 0.089853816 0.024202108
-0.061727148 -0.06923946 0.040700763 0.040819846 0.020945158 -0.11336241 -0.12759939 0.06464225
0.0040594894 -0.065149546 0.10199606 0.006754225 0.027056603 -0.05442908 0.021943256 -0.013091908
0.07165296 -0.081008345 0.07202142 0.005585595 0.043817114 -0.024041133 0.04472749 0.09086934
-0.13223831 -0.092254415 0.065768644 -0.030003145 -0.07830322 0.056099795 -0.040042818 -0.008881517
-0.058164816 -0.09883768 0.014031488 -0.114151515 0.07043542 0.059409115 0.015337143 -0.09651977
0.028684922 0.07074757 0.0020124395 0.064036 -0.018586788 -0.06695237 0.05830769 -0.118429825
0.026230678 -0.027852971 0.001237992 -0.14578235 -0.07484424 -0.054212924 0.07083633 0.07048069
0.04174892 0.089126304 -0.0637383 -0.072446555 0.10530832 -0.050248526 0.015863707 0.0009776023
0.033968076 -0.10366285 0.08024925 -0.04490224 0.102789305 -0.075495206 -0.13444366 -0.038981978
-0.13145417 0.008244159 0.036557667 -0.10268173 0.11110256 -0.038858447 0.009332248 -0.022212837
0.082811266 -0.11449975 -0.08415951 0.04618629 -0.007711166 -0.02258938 -0.060203303 -0.098625876
0.05332195 0.116517894 -0.041524272 0.09457098 -0.0814032 -0.07721926 0.046418495 -0.15448296
-0.018363059 -0.0663859 0.09154021 -0.052647345 -0.026346728 0.10546423 0.082947455 -0.0989841
-0.043665677 -0.09739139 0.042291462 -0.022509651 0.07520105 -0.01757056 0.0005829946 0.03611197
-0.13620529 0.028522674 -0.1110426 -0.14480583 0.08559105 -0.037965138 0.020477604 -0.106746115
-0.13862242 -0.00796775 -0.102635704 0.06860814 -0.109452814 0.053680204 0.09470711 -0.044229385
-0.10185879 -0.065739244 0.08615325 0.07355906 -0.018951073 0.0944457 -0.0774638 -0.058631826
0.08909364 -0.07353509 -0.09563981 -0.11314146 0.024096046 -0.045358244 0.06483225 -0.12273276
-0.068914175 -0.033980377 0.0861717 0.020280477 -0.09563872 -0.09245639 -0.059922464 -0.016691405
-0.04447603 0.011931486 0.1156743 0.004827353 -0.12745467 -0.20325631 0.111023195 0.08813843
-0.05865005 0.026340296 -0.09748042 -0.15029521 0.058117323 -0.059425123 -0.060848627 0.08201002
0.09079871 0.045696866 -0.108900465 -0.15760995 0.0017219462 0.079319075 -0.013340105 -0.07223322
-0.05619499 -0.12212017 0.05504577 -0.223935 0.014071746 0.09535758 0.11525177 0.100354105
0.06526896 0.07459018 0.02651301 -0.13153635 0.07552198 0.079761095 0.10332444 -0.11517568
0.040550955 -0.12545584 -0.08328245 -0.10940482 -0.05502163 0.04780705 0.047368918 0.08246514
-0.034170896 -0.103464894 -0.012871962 -0.043234605 0.04235956 0.01763891 0.0980257 0.07401772
-0.13047127 -0.0686528 -0.047605574 0.043357063 -0.032318633 0.0638817 -0.06684989 0.031843513

fire2.squeeze.bias f4 [32]
00000000: 6584 1f3d 7c1a bbbc 452e 10be b972 473d
00000010: fccf e13d d645 81bd 1ff6 cebc e73a cfbd
00000020: 19c9 31bd 85c6 bc3d a61b 0fbe 6b40 953d
00000030: cdd8 fdbb 4736 53bd 2dc8 be3d d5cc 7c3c
00000040: b4d7 ab3c 3c22 99bd 1b84 ff3c 88fe 853d
00000050: d966 b33d 3e54 7abd 7161 93bd dcbb 113d
00000060: edf6 b83c aca8 843d e2fe 96bc b0a5 953d
00000070: 8bdd 9ebc 3b09 f63d 7c18 b33d 8ad3 5dbd
0.03894462 -0.022839777 -0.1408015 0.048693392 0.11025998 -0.06312148 -0.025263844 -0.101186566
-0.043404672 0.09217552 -0.13975391 0.072876774 -0.007746792 -0.051565435 0.09315524 0.015429695
0.020976879 -0.07477233 0.031190922 0.065426886 0.08759851 -0.061115496 -0.0719632 0.035579547
0.02257868 0.06477484 -0.018432084 0.07306993 -0.01939275 0.12013479 0.087449044 -0.054156817
