Task4/checkpoints/preetrain_triplet.pt (torch, 70142 bytes, 12 tensors)

conv1.weight f4 [128, 3, 3, 3]
0	0x3c063836	0.008192113
1	0x3ce13cfb	0.027494898
2	0xbe576e27	-0.21038114
3	0xbe1a24a5	-0.15053041
4	0xbe1476e5	-0.1449848
5	0x3d19101a	0.03736887
6	0xbcf8327b	-0.030297508
7	0x3dc63487	0.096779875
8	0xbd450498	-0.048100084
9	0x3db54eb2	0.088529006
10	0xbdd8d236	-0.105869696
11	0xbd9e75fc	-0.077373475
12	0xbe2f9c60	-0.17149496
13	0xbe38b2b6	-0.18036923
14	0xbda9735b	-0.082739554
15	0x3c457c49	0.012053558
16	0x3d596a3e	0.053079836
17	0x3dd353e9	0.10318739
18	0xbdde35f1	-0.10850132
19	0xbe165b54	-0.14683276
20	0x3b65ce59	0.003506562
21	0x3e231a17	0.15927921
22	0xbddb9661	-0.10722042
23	0x3de14c99	0.11000938
24	0xbd186e26	-0.03721442
25	0xbca3f708	-0.020015255
26	0x3e066098	0.13122785
27	0xbe3c417b	-0.18384354
28	0xbd83bc4b	-0.064323984
29	0x3ca223d7	0.01979248
30	0xbd59f88d	-0.053215552
31	0x3e4bbd64	0.19896466
32	0xbd98098b	-0.07423695
33	0xbcd3658b	-0.025805255
34	0xbdf8bc2d	-0.12145267
35	0xbe296a47	-0.16544448
36	0xbdf04c3f	-0.11733293
37	0x3e63f242	0.22260383
38	0x3e26043d	0.16212554
39	0x3de912fd	0.11380575
40	0x3d1ddcef	0.038540777
41	0xbd5a344c	-0.05327253
42	0x3dc04a37	0.09389155
43	0xbe33e92f	-0.17569421
44	0xbe0c81bc	-0.13721365
45	0xbe1c7d20	-0.15282106
46	0x3df5c1c4	0.119998485
47	0x3def230d	0.11676607
48	0xbdef4c4e	-0.11684476
49	0xbd24ec5d	-0.040264476
50	0x3db78c52	0.08962311
51	0x3e43155a	0.19051114
52	0xbb8a3965	-0.0042182677
53	0xbd963476	-0.07334225
54	0x3e1b7c61	0.15184166
55	0xbdcc3813	-0.09971633
56	0x3d249f10	0.040190756
57	0xbe13d05f	-0.14434956
58	0xbdf2398a	-0.11827381
59	0xbd9f38c9	-0.07774503
60	0x3db7e9bf	0.089801304
61	0x3dcc5944	0.099779636
62	0xbdba9925	-0.09111241
63	0x3dcabbc0	0.09899092
64	0x3dfe432d	0.124151565
65	0xbceeac6d	-0.029134953
66	0x3ceb8cb3	0.028753614
67	0x3d9431ac	0.07236037
68	0x3e0cf367	0.13764726
69	0x3e55a072	0.20861986
70	0xbddeaa57	-0.108723335
71	0xbd3b624a	-0.045748033
72	0x3e09cd08	0.1345712
73	0x3e418f63	0.18902354
74	0x3e39d0d7	0.18146072
75	0x3e554f2b	0.20830981
76	0x3d9ab3d6	0.07553832
77	0xbe0c8ccc	-0.13725585
78	0x3d80335c	0.06259796
79	0xbd9305b2	-0.07178821
80	0xbe154998	-0.14578855
81	0x3e2f36b8	0.17110717
82	0x3e11e119	0.14246024
83	0xbe6dce09	-0.23223127
84	0x3cf904a7	0.030397726
85	0xbcca7a12	-0.02471641
86	0xbd9daf0e	-0.07699405
87	0xbdb8f720	-0.0903151
88	0x3dbac17f	0.09118938
89	0xbe10f041	-0.1415415
90	0x3d6ef313	0.058337282
91	0x3da4c931	0.08046187
92	0x3d7a2afd	0.061076153
93	0x3d65af7c	0.056075558
94	0xbe462c1c	-0.19352764
95	0xbe5399ed	-0.20664187
96	0x3da9f5cb	0.082988344
97	0x3d45ff65	0.048339266
98	0xbe55e151	-0.20886733
99	0xbdeb01cf	-0.11474954
100	0x3e30a832	0.17251661
101	0x3d877a8e	0.06615172
102	0xbdb999df	-0.09062552
103	0xbd34ac20	-0.044109464
104	0xbe82c224	-0.25538743
105	0xbb7ae666	-0.00382843
106	0xbdfd5549	-0.123697825
107	0xbe384d7c	-0.17998308
108	0xbc8e4fb4	-0.01737199
109	0xbc71a1eb	-0.014748077
110	0xbdbb8da3	-0.091578744
111	0x3dc9aab1	0.0984701
112	0xbe58056b	-0.21095817
113	0x3e0bbaeb	0.13645522
114	0x3dedb694	0.1160709
115	0xbe79cb84	-0.24394041
116	0xbd8a1250	-0.06741774
117	0x3c8424d0	0.016130835
118	0xbcbf9e6a	-0.023390967
119	0x3cfe7cb6	0.031065326
120	0x3d88b569	0.06675226
121	0xbdede423	-0.11615779
122	0xbe0db8e4	-0.13840061
123	0x3d9ca209	0.07648093
124	0xbe9af0b9	-0.30261782
125	0xbe157b47	-0.14597808
126	0x3c1327c8	0.008981653
127	0xbd88872e	-0.066664085
128	0xbd82aafd	-0.0638027
129	0xbde468b7	-0.11152785
130	0xbd74b8bd	-0.059746493
131	0x3c9942d6	0.018708628
132	0xbdb9d65d	-0.0907409
133	0xbcc6ce42	-0.024268273
134	0x3e035667	0.12825929
135	0xbd1b8597	-0.037969198
136	0xbd4d1cbd	-0.050076235
137	0xbc13b2e5	-0.00901482
138	0x3d1978f2	0.037468858
139	0x3d888733	0.06666412
140	0x3e3e1799	0.1856369
141	0x3dd4cd0e	0.103906736
142	0x3df7849e	0.120858416
143	0xbc950817	-0.018192334
144	0xbe21021a	-0.15723458
145	0xbdfc96e0	-0.123334646
146	0x3e37877e	0.1792278
147	0x3ce2cd3d	0.027685756
148	0xbe0c2bd4	-0.13688594
149	0xbde02036	-0.10943644
150	0xbe3059b8	-0.17221725
151	0xbe642bba	-0.22282305
152	0xbc9ef53e	-0.01940405
153	0x3ddb6fe1	0.107146986
154	0x3d244c38	0.04011175
155	0xbe30ee80	-0.1727848
156	0x3e0a83aa	0.13526788
157	0xbe7184ac	-0.23585767
158	0xbd48b46f	-0.0490002
159	0xbdcd73b8	-0.10031837
160	0xbe2d7950	-0.16940808
161	0xbdb78f94	-0.08962932
162	0xbe1d9078	-0.15387142
163	0xbe15da06	-0.1463395
164	0xbc37055f	-0.011170714
165	0x3cf91aca	0.030408282
166	0xbd56dc39	-0.052456114
167	0x3ddc6caf	0.10762917
168	0xbe146b67	-0.14494096
169	0x3d23466b	0.039862078
170	0x3e62ba79	0.22141446
171	0xbd8b5c56	-0.06804721
172	0x3e4864f1	0.19569756
173	0x3dc9d2e3	0.098546766
174	0xbe17bf93	-0.14819174
175	0x3e272f8e	0.16326734
176	0x3ce2d33a	0.027688611
177	0xbd652ccd	-0.05595093
178	0x3e6283ba	0.22120562
179	0xbd9b3f32	-0.07580413
180	0x3ce05ba7	0.027387453
181	0xbc4ee8a7	-0.012628711
182	0x3e2fcb2a	0.17167345
183	0x3d925df3	0.07146826
184	0x3e0d35a9	0.13790001
185	0x3df8c4e3	0.12146928
186	0xbcb97a0a	-0.0226412
187	0x3d068a70	0.032846868
188	0xbd8bfd02	-0.06835367
189	0x3de24544	0.110483676
190	0x3dc98426	0.098396584
191	0x3de2e383	0.11078551
192	0xbdf45a5b	-0.119312964
193	0xbd4999fb	-0.049219113
194	0xbe01ff23	-0.12694983
195	0xbdfefde5	-0.1245077
196	0xbe2a1213	-0.16608457
197	0x3dbd05f0	0.09229648
198	0xbdd540b6	-0.10412733
199	0xbd6a113c	-0.057145342
200	0xbc3b3f2d	-0.0114286365
201	0x3e0bbecd	0.13647003
202	0xbe5a5c77	-0.21324335
203	0xbe02f803	-0.12789921
204	0xbe0c8723	-0.13723426
205	0x3d8aa6e9	0.06770117
206	0xbd466c99	-0.04844341
207	0x3e3f65ae	0.18691131
208	0x3d1ce18d	0.03830104
209	0x3c35e213	0.011101264
210	0x3cf3e6bd	0.02977311
211	0xbd90192c	-0.07036051
212	0x3d260fb5	0.040542323
213	0xbd57bad6	-0.052668415
214	0xbd15d535	-0.036580283
215	0x3d65f718	0.05614385
216	0xbe27a5f6	-0.16371903
217	0xbde8f325	-0.11374501
218	0x3df60445	0.12012533
219	0xbe2f356d	-0.17110224
220	0xbce44a8c	-0.027867578
221	0x3e05024d	0.12989159
222	0x3d0b1abc	0.033961043
223	0xbce53451	-0.027979048
224	0xbe90c705	-0.2827684
225	0x3dea7d1d	0.11449645
226	0xbdd5bc68	-0.10436326
227	0xbd638401	-0.05554581
228	0xbd4ff511	-0.050770823
229	0x3ad806b4	0.001648149
230	0xbcdff7a7	-0.02733977
231	0x3e2fd215	0.17169984
232	0x3d6cce4a	0.05781392
233	0x3de659a0	0.11247563
234	0x3dca5116	0.09878747
235	0xbe108e43	-0.14116769
236	0x3d5b3e30	0.053526103
237	0xbe2d5ffe	-0.1693115
238	0xbde6310c	-0.11239824
239	0xbc13e755	-0.009027322
240	0x3d6bb3f9	0.057544682
241	0x3e1fdfac	0.15612668
242	0xbe07ce51	-0.13262297
243	0xbda1c049	-0.078980036
244	0x3cc84d44	0.024450906
245	0xbe30a5e1	-0.17250778
246	0x3dba40c4	0.09094384
247	0xbe5179da	-0.20456639
248	0x3ce22071	0.02760336
249	0xbdd81253	-0.1055037
250	0xbe02e67e	-0.12783238
251	0x3d839f96	0.06426923
252	0x3d8abe68	0.06774598
253	0xbe1b1467	-0.15144502
254	0xbdebd7a0	-0.115157366
255	0xbe06b203	-0.13153844

conv1.bias f4 [128]
0	0xb539761e	-6.9089754e-07
1	0x37963fcf	1.7911107e-05
2	0xb30526b3	-3.1001672e-08
3	0x363bbbdd	2.7974522e-06
4	0xb685f47c	-3.9921706e-06
5	0xb76d5c71	-1.4147824e-05
6	0x36af2254	5.2194027e-06
7	0xb65eb4ae	-3.3185747e-06
8	0xb7055530	-7.947252e-06
9	0x3745436d	1.1757814e-05
10	0x37a9188b	2.0157799e-05
11	0xb1b16479	-5.1628004e-09
12	0x37a35f7e	1.9475581e-05
13	0x36d89042	6.4540955e-06
14	0xb6033842	-1.9553268e-06
15	0x37216ac0	9.6212025e-06
16	0x378303dc	1.5618214e-05
17	0xb710973a	-8.618279e-06
18	0x3847cdde	4.7637026e-05
19	0x3757e5a0	1.2868462e-05
20	0x38aa29e0	8.1140315e-05
21	0xb438c8b4	-1.7209351e-07
22	0x37e98aa1	2.7840319e-05
23	0x3642c4f0	2.9022885e-06
24	0x37cca934	2.4397486e-05
25	0x3498b7bc	2.844589e-07
26	0x360ed3b6	2.128288e-06
27	0xb7a49e4a	-1.9624033e-05
28	0x3819c98e	3.6665755e-05
29	0x37c6e415	2.3709648e-05
30	0xb6dde7af	-6.6132848e-06
31	0xb71f6a1b	-9.501843e-06
32	0x364a0ab4	3.0106576e-06
33	0xb7ca1fa3	-2.4095008e-05
34	0x383ba079	4.4733726e-05
35	0xb7640690	-1.3591387e-05
36	0xb84673fd	-4.73149e-05
37	0x38ecbfa2	0.00011289051
38	0xb866d044	-5.5030236e-05
39	0xb7598c9e	-1.2966948e-05
40	0xb7bdae1d	-2.2611634e-05
41	0x379ffb6d	1.9071356e-05
42	0x37517b5c	1.2486093e-05
43	0xb838054e	-4.387396e-05
44	0x380abd12	3.307785e-05
45	0xb722ee9d	-9.711509e-06
46	0x37aaff05	2.0384332e-05
47	0xb63e431c	-2.835127e-06
48	0x36d84b4d	6.446068e-06
49	0x37a5314e	1.9692492e-05
50	0xb79f71ff	-1.900736e-05
51	0x37086866	8.130539e-06
52	0xb71b0e9d	-9.242122e-06
53	0x3765437b	1.3665175e-05
54	0xb81382c1	-3.5169305e-05
55	0x3743fd73	1.16819165e-05
56	0xb777a6f8	-1.4761223e-05
57	0x3753844f	1.26073855e-05
58	0xb78039dc	-1.5285732e-05
59	0xb881f4fb	-6.1968305e-05
60	0x383803de	4.387262e-05
61	0xb7e3e46c	-2.7166876e-05
62	0x367ecc43	3.7967845e-06
63	0x376a387c	1.3960638e-05
64	0xb60610c3	-1.9977313e-06
65	0x34be4f3e	3.5447914e-07
66	0xb8a7838a	-7.9876816e-05
67	0xb7524a60	-1.2534292e-05
68	0x37459325	1.1776375e-05
69	0x37c240a8	2.315671e-05
70	0x388228e6	6.206501e-05
71	0x376ab517	1.398965e-05
72	0xb80c61b5	-3.3469598e-05
73	0xb73847be	-1.0983958e-05
74	0x37019b91	7.72522e-06
75	0x33e5b7d4	1.06970816e-07
76	0xb7a51f4e	-1.968411e-05
77	0x373e82a2	1.1355298e-05
78	0x3812d13c	3.5003977e-05
79	0xb6105853	-2.1509084e-06
80	0xb6ba6a5a	-5.555613e-06
81	0xb6d04a3f	-6.2075264e-06
82	0x36aab4f7	5.087462e-06
83	0x365b4b3c	3.2677335e-06
84	0xb7a60f95	-1.9795998e-05
85	0xb7e2696c	-2.699039e-05
86	0xb8cf94f2	-9.8982724e-05
87	0x371d5bcb	9.379301e-06
88	0x37252519	9.843404e-06
89	0xb640578f	-2.8661195e-06
90	0x3723f23f	9.771959e-06
91	0xb6d4e62b	-6.3448874e-06
92	0x36962a79	4.475293e-06
93	0x37b3b749	2.1423812e-05
94	0xb6ba2723	-5.547788e-06
95	0xb844e2a9	-4.6941135e-05
96	0xb748dbab	-1.1972074e-05
97	0x385c1a0e	5.2476353e-05
98	0xb6dafdbf	-6.526446e-06
99	0xb6c71c9e	-5.9339936e-06
100	0x383d491c	4.51292e-05
101	0xb43cfca9	-1.7600782e-07
102	0xb7a038a2	-1.9099858e-05
103	0xb6588c64	-3.2268226e-06
104	0x384aa653	4.8315454e-05
105	0xb670f64a	-3.5906146e-06
106	0x377e4607	1.5155884e-05
107	0xb71fc9f4	-9.524159e-06
108	0xb6827eaa	-3.8890475e-06
109	0xb5ff6da0	-1.9030886e-06
110	0xb6d4f475	-6.346551e-06
111	0xb62b91af	-2.5565785e-06
112	0x36931c6b	4.3842497e-06
113	0xb6f0a9c8	-7.1723225e-06
114	0xb7913dea	-1.7314178e-05
115	0x36d60d8c	6.379274e-06
116	0xb7551031	-1.2699559e-05
117	0xb73b615a	-1.1168735e-05
118	0x36f9d9f2	7.4461504e-06
119	0x36c65041	5.9102026e-06
120	0xb6835940	-3.9144943e-06
121	0xb6a0ca18	-4.7918984e-06
122	0xb59304a2	-1.0953702e-06
123	0x38334175	4.2737887e-05
124	0x365f60e9	3.3285999e-06
125	0x381db8ed	3.7603942e-05
126	0x37a6bce3	1.98767e-05
127	0x37f3ec33	2.9077846e-05

bn1.weight f4 [128]
0	0x3f731da4	0.94967103
1	0x3f84436e	1.0333078
2	0x3f776b63	0.96648234
3	0x3f78629b	0.9702546
4	0x3f7d742a	0.9900538
5	0x3f81b6a2	1.013386
6	0x3f7da043	0.99072665
7	0x3f818d9d	1.0121342
8	0x3f80abd2	1.0052435
9	0x3f728526	0.9473442
10	0x3f8562cb	1.0420774
11	0x3f850646	1.039254
12	0x3f75b07d	0.95972425
13	0x3f77fa76	0.9686655
14	0x3f7305e2	0.9493085
15	0x3f7dcda3	0.991419
16	0x3f7a6880	0.97815704
17	0x3f7154c7	0.94269985
18	0x3f8792cc	1.0591674
19	0x3f7a91d1	0.9787875
20	0x3f83c39f	1.0294074
21	0x3f6e1eea	0.9301592
22	0x3f789de2	0.9711591
23	0x3f7b8d74	0.98262715
24	0x3f753ff1	0.9580069
25	0x3f6ea3eb	0.9321887
26	0x3f7086f4	0.9395592
27	0x3f8e8108	1.1133127
28	0x3f8051a8	1.002492
29	0x3f7f6122	0.9975759
30	0x3f6eb789	0.932488
31	0x3f71367d	0.9422377
32	0x3f7dafd6	0.9909643
33	0x3f7aafd2	0.9792453
34	0x3f7a52b2	0.97782433
35	0x3f7a94c5	0.97883254
36	0x3f7a2a32	0.97720635
37	0x3f87eae7	1.0618562
38	0x3f741a2c	0.95352435
39	0x3f84d7c4	1.0378346
40	0x3f76f90e	0.9647378
41	0x3f6f7c90	0.9354944
42	0x3f7edaee	0.9955281
43	0x3f85ddc3	1.0458301
44	0x3f8c50fa	1.0962212
45	0x3f7bd3b8	0.9836993
46	0x3f735cfe	0.9506377
47	0x3f78da4d	0.972081
48	0x3f7ff650	0.9998522
49	0x3f735b93	0.95061606
50	0x3f8218f5	1.0163866
51	0x3f7d56bd	0.9896048
52	0x3f784265	0.9697631
53	0x3f7f9412	0.9983531
54	0x3f80959f	1.0045661
55	0x3f69dba2	0.9135076
56	0x3f84a2ff	1.0362242
57	0x3f6fc480	0.9365921
58	0x3f7baf53	0.983144
59	0x3f80b68b	1.0055708
60	0x3f8603e8	1.0469942
61	0x3f805b97	1.0027951
62	0x3f6e8326	0.93168867
63	0x3f69153e	0.9104804
64	0x3f7695ec	0.9632251
65	0x3f7d66f0	0.98985195
66	0x3f8c73d2	1.0972846
67	0x3f7ae60e	0.98007286
68	0x3f772d17	0.96553177
69	0x3f6f3f38	0.9345584
70	0x3f7d68cd	0.9898804
71	0x3f8075e4	1.0035977
72	0x3f74576a	0.95445883
73	0x3f76e09c	0.96436477
74	0x3f7f3808	0.9969487
75	0x3f71fab1	0.9452315
76	0x3f775ac0	0.9662285
77	0x3f73d9a4	0.9525397
78	0x3f7f2b63	0.9967558
79	0x3f7fa61e	0.9986285
80	0x3f73b329	0.9519525
81	0x3f6d420b	0.926789
82	0x3f7fb498	0.9988494
83	0x3f817a3a	1.0115426
84	0x3f83bdf5	1.0292345
85	0x3f80982b	1.0046438
86	0x3f813857	1.0095319
87	0x3f7d5e59	0.9897209
88	0x3f754968	0.95815134
89	0x3f74439d	0.9541567
90	0x3f7d98b6	0.99061143
91	0x3f77e3cf	0.96831983
92	0x3f6ce295	0.92533237
93	0x3f6e13a8	0.92998743
94	0x3f89132e	1.0708978
95	0x3f73823e	0.9512061
96	0x3f73e64b	0.95273274
97	0x3f78df1b	0.9721543
98	0x3f793f6f	0.97362417
99	0x3f806e6c	1.0033698
100	0x3f8569c1	1.0422899
101	0x3f79489f	0.97376436
102	0x3f7c3728	0.9852166
103	0x3f71b91d	0.94423085
104	0x3f6cc1c9	0.9248319
105	0x3f870ec7	1.0551385
106	0x3f678484	0.9043658
107	0x3f72b492	0.9480678
108	0x3f7dc087	0.991219
109	0x3f5fd6cf	0.87437147
110	0x3f7b0a38	0.9806247
111	0x3f6a1625	0.9144004
112	0x3f827f60	1.0195122
113	0x3f82519d	1.0181156
114	0x3f791315	0.9729474
115	0x3f775172	0.9660865
116	0x3f6e2fcb	0.93041676
117	0x3f76692e	0.9625424
118	0x3f750b64	0.95720506
119	0x3f7caa64	0.98697495
120	0x3f82cc2c	1.0218558
121	0x3f8418f0	1.032011
122	0x3f8004fb	1.000152
123	0x3f8f390a	1.1189282
124	0x3f7d9fbf	0.9907188
125	0x3f827062	1.0190547
126	0x3f81895b	1.0120043
127	0x3f6c0b16	0.92204416

bn1.bias f4 [128]
0	0xbce225e8	-0.027605966
1	0x3c885fc5	0.016647229
2	0x3af6bd48	0.0018824721
3	0x3dc55b89	0.096365996
4	0xbe3d3e68	-0.18480837
5	0xbdb2b390	-0.08725655
6	0x3dca3fe8	0.098754704
7	0xbd61e829	-0.055153046
8	0x3c547d58	0.012969337
9	0xba054ad8	-0.00050847
10	0xbd295e33	-0.0413496
11	0xbb4183ae	-0.002952795
12	0xbdebd94e	-0.11516057
13	0xbd352cdb	-0.04423223
14	0xbe15f544	-0.14644343
15	0x3e22660a	0.15859237
16	0xbcd52057	-0.026016397
17	0x3dbf3d8f	0.09337913
18	0xbc51000f	-0.012756362
19	0xbdc8d72a	-0.09806664
20	0xbd455312	-0.048174925
21	0xbd846704	-0.06464961
22	0x3e1e2862	0.15445092
23	0xbe5044f3	-0.20338802
24	0xbd992c70	-0.07479179
25	0x3d3a911f	0.045548555
26	0x3dcbeb52	0.09956993
27	0xbcb56f3c	-0.022147767
28	0x3da45d9d	0.08025668
29	0xbc724a82	-0.014788272
30	0x3d03dda6	0.032193802
31	0x3d9e84b5	0.077401556
32	0x3e33b512	0.17549542
33	0x3e10dddd	0.14147134
34	0x3dd2695e	0.102740034
35	0xbdd288d0	-0.10280001
36	0x3b9d661a	0.004803431
37	0xbde8a677	-0.11359876
38	0x3cd9b469	0.026575284
39	0xbccec5d8	-0.025240824
40	0xbd247b78	-0.04015681
41	0xbd9862d2	-0.074407235
42	0x3d5babed	0.053630758
43	0xbdf047c5	-0.11732439
44	0xbd0857b8	-0.03328678
45	0x3da75839	0.08171124
46	0x3c281182	0.01025808
47	0x3e54749e	0.20747611
48	0xbd595e61	-0.053068522
49	0xbd1a113f	-0.037614103
50	0xbcdf86c2	-0.027285937
51	0xbe190e99	-0.14946975
52	0xbdc7a97c	-0.097491235
53	0x3e2f7857	0.1713575
54	0xbce43424	-0.027856894
55	0xbd80cf92	-0.06289591
56	0xbb79ae0e	-0.003809813
57	0x3e1df97a	0.15427199
58	0xbdbab34e	-0.09116231
59	0xbd46baa4	-0.048517838
60	0xbc15e4b2	-0.0091487635
61	0x3cf44a0a	0.02982046
62	0xbd13814e	-0.036011986
63	0xbe11df1c	-0.14245266
64	0xbdffb44c	-0.12485561
65	0xbd3b1c62	-0.045681365
66	0x3dfcc597	0.12342375
67	0xbe1db736	-0.1540192
68	0xbd803490	-0.062600255
69	0x3e019dda	0.12657872
70	0x3d2753e5	0.040851492
71	0x3d1c3958	0.038140625
72	0xbe42a594	-0.19008476
73	0xbd3517b2	-0.04421205
74	0x3d803372	0.062598124
75	0xbd28bdc8	-0.041196615
76	0x3c853f2d	0.016265476
77	0x3d8c35d7	0.06846207
78	0xbd1e10b1	-0.038590137
79	0x3c4e1782	0.012578847
80	0x3c169b9b	0.009192373
81	0xbe05e2ec	-0.13074845
82	0x3d4b047b	0.04956482
83	0xbc087418	-0.00832846
84	0xbd4b40b4	-0.049622253
85	0xbda560a0	-0.080750704
86	0x3dbec39a	0.09314652
87	0xbdf6fdc4	-0.12060121
88	0x3c84eb52	0.01622549
89	0x3da9d782	0.08293058
90	0xbd001b93	-0.031276297
91	0xbd8b2ef0	-0.06796062
92	0xbda14bf1	-0.07875813
93	0x3d8b2167	0.0679348
94	0x3c9106fe	0.01770353
95	0x3dc5b4d4	0.09653631
96	0xbdc740b7	-0.0972914
97	0x3db58971	0.088641055
98	0xbdc1db9a	-0.09465714
99	0xbc9348cd	-0.01797905
100	0xbb715401	-0.0036823752
101	0xbcdfe50d	-0.0273309
102	0x3c22428b	0.00990356
103	0xbd980f10	-0.07424748
104	0x3cc614dc	0.024179868
105	0xbcee6a5b	-0.029103449
106	0xbe0b573b	-0.13607495
107	0xbe49b0cd	-0.1969635
108	0xbd90c507	-0.0706883
109	0xbd6760ac	-0.056488678
110	0x3c4895fe	0.012242792
111	0x3cc57182	0.024101976
112	0xbda45704	-0.080244094
113	0xbd91c280	-0.07117176
114	0x3d9b8372	0.075934306
115	0xbe24e6f0	-0.1610372
116	0x3d0c208a	0.03421072
117	0x3dc8c324	0.09802845
118	0x3e0078d0	0.12546086
119	0xbe014c5f	-0.1262679
120	0xbdb9bbaa	-0.09068997
121	0xbd05a4ec	-0.032627985
122	0xbc343393	-0.010998624
123	0xbde61619	-0.112346835
124	0xbdfb136b	-0.12259563
125	0xbc8e9162	-0.017403308
126	0x3da19521	0.07889772
127	0xbdff2018	-0.12457293

bn1.running_mean f4 [128]
0	0x3d7ec510	0.062199652
1	0x3df67eb5	0.12035886
2	0x3e21f40c	0.15815753
3	0xbdecdc85	-0.11565498
4	0xbc9d9515	-0.019236127
5	0xbe5d6443	-0.21620278
6	0x3e0d9d1f	0.13829468
7	0x3d8b8e8a	0.068142965
8	0x3d4ad80a	0.049522437
9	0x3dc942f7	0.09827226
10	0x3d787522	0.06065858
11	0x3cfe4594	0.031039037
12	0x3d4160a2	0.047211297
13	0xbe3135c6	-0.17305669
14	0xbcae3fb7	-0.021270616
15	0xbe1deb5a	-0.15421811
16	0x3e8d15eb	0.27555785
17	0x3c95c055	0.018280188
18	0x3b49f604	0.0030816803
19	0xbe6466aa	-0.22304788
20	0x3c6bee40	0.014400065
21	0xbd05f321	-0.03270257
22	0x3de0cca1	0.1097653
23	0x3e0e0c36	0.13871846
24	0x3e10dddd	0.14147134
25	0x3bc96f41	0.0061472957
26	0xbd1e604f	-0.038666066
27	0xbaa98eb2	-0.0012936203
28	0x3d7552c5	0.05989339
29	0x3d7e0c70	0.06202358
30	0xbcb4c5ea	-0.022067029
31	0xbd4e9098	-0.050430864
32	0x3dcf5183	0.10122969
33	0xbc43653f	-0.011925994
34	0xbdb67366	-0.08908729
35	0x3e3b5923	0.18295722
36	0xbcb8eb4b	-0.022573134
37	0x3d904e5b	0.07046195
38	0x3cb37502	0.02190638
39	0xbd770d09	-0.060315166
40	0xbcc88be8	-0.024480775
41	0x3cbb51aa	0.022866089
42	0x3d18bd71	0.03729004
43	0xbd489ebc	-0.048979506
44	0xbc98e22e	-0.018662538
45	0xbceb1778	-0.028697714
46	0x3df1e110	0.118105054
47	0xbd84edd9	-0.06490678
48	0xbdce4c7a	-0.100731805
49	0x3e2d51df	0.16925763
50	0xbdd2e65f	-0.10297846
51	0xbc92f604	-0.017939575
52	0xbe5a86b7	-0.21340452
53	0x3d9fb885	0.07798866
54	0x3dd32f87	0.103117995
55	0x3d84d087	0.06485086
56	0x3caab690	0.020839006
57	0xbe5a292b	-0.21304767
58	0x3e303741	0.17208578
59	0xbda80381	-0.08203793
60	0xbdc18973	-0.094500445
61	0x3d668ce9	0.056286726
62	0x3db6c6c1	0.08924628
63	0x3d6bdddb	0.057584625
64	0xbdcccc8d	-0.099999525
65	0x3e540b01	0.20707323
66	0x3d0b29c9	0.033975396
67	0xbe0383b0	-0.12843204
68	0x3e5dc0cb	0.21655576
69	0xbea3f0e4	-0.32019722
70	0x3c81f23e	0.01586258
71	0xbe545d43	-0.20738702
72	0xbeacfe46	-0.33787745
73	0x3d9cb675	0.076519884
74	0xbe3ba2c1	-0.18323804
75	0x3dab195f	0.083544485
76	0x3d9e116f	0.07718169
77	0xbbdc705a	-0.0067272605
78	0xbd47039c	-0.048587427
79	0xbd0397bc	-0.032127127
80	0x3c4a06ed	0.012330753
81	0xbd96c06c	-0.0736092
82	0x3d49597e	0.049157612
83	0x3e1b71c6	0.1518012
84	0xbd7e1233	-0.062029075
85	0x3cb81a38	0.02247344
86	0x3d5d0015	0.053955156
87	0xbdbe35b5	-0.092875876
88	0xbdb3a229	-0.08771164
89	0xbdd4473a	-0.10365148
90	0xbe2c2cc3	-0.1681395
91	0xbcc39711	-0.023875745
92	0x3e3d8918	0.18509328
93	0xbda74871	-0.08168114
94	0x3d6e8f73	0.058242273
95	0x3ddf5d82	0.10906507
96	0xbe1cec78	-0.1532458
97	0xbcf71dd5	-0.030165592
98	0xbd3ad812	-0.045616217
99	0x3de03502	0.109476104
100	0xbb65ef5f	-0.0035085303
101	0x3dd4bd83	0.10387709
102	0x3cc4fb83	0.024045711
103	0x3d68444a	0.05670575
104	0x3da2eb66	0.07955055
105	0x3e02c457	0.1277021
106	0x3e85012c	0.25977457
107	0xbd5cdd77	-0.053922143
108	0x3d8ab7fb	0.06773373
109	0x3e224a63	0.15848689
110	0x3d6f4f86	0.05842545
111	0x3ea01b78	0.31270957
112	0xbda975c8	-0.08274418
113	0xbe0d488e	-0.13797209
114	0xbd027401	-0.03184891
115	0x3c34a3a1	0.01102534
116	0xbd809dce	-0.06280099
117	0x3c366a9d	0.011133817
118	0xbd47d27f	-0.04878473
119	0xbd2bf8d9	-0.041985366
120	0xbcbee40e	-0.023302104
121	0x3ddc61ef	0.10760867
122	0x3d75d46b	0.06001703
123	0x3c6a8719	0.014314436
124	0xbe108f80	-0.14117241
125	0xbcf1e262	-0.029526893
126	0xbcabb098	-0.02095823
127	0xbd2d0e50	-0.042249978

bn1.running_var f4 [128]
0	0x3f3c6c44	0.736027
1	0x3e1fb59d	0.15596624
2	0x3f6d0621	0.92587477
3	0x3f8cb80e	1.0993669
4	0x3faa5362	1.3306696
5	0x3f847592	1.034838
6	0x3f2cbb6c	0.67473483
7	0x3ea15425	0.3150951
8	0x3e91b283	0.28456506
9	0x3feb4e58	1.8383284
10	0x3ed6ff12	0.41991478
11	0x3defa8ab	0.11702093
12	0x3fab94ab	1.3404745
13	0x3f3caeab	0.7370402
14	0x3fe867ce	1.8156679
15	0x3f304d38	0.68867826
16	0x3ec1d345	0.37856498
17	0x3edd7efa	0.43260938
18	0x3f49fe3b	0.7890355
19	0x3f38800c	0.72070384
20	0x3e717010	0.23577905
21	0x3f4ba43c	0.79547477
22	0x3fc41e46	1.5321739
23	0x3f3bd5ec	0.73373294
24	0x3df8bf15	0.12145821
25	0x401c5a61	2.4430163
26	0x3fa2fbf8	1.2733145
27	0x3da57ff8	0.08081049
28	0x3e4d88a3	0.20071654
29	0x3e66de5b	0.2254576
30	0x3e7d54f9	0.24739446
31	0x3ed7d805	0.42156997
32	0x3f370aac	0.7150066
33	0x40287bf0	2.6325645
34	0x3dd8fadb	0.10594722
35	0x3f6d8ba6	0.9279121
36	0x3e63360b	0.22188585
37	0x3eb7d7e2	0.35906893
38	0x3e875ff1	0.26440385
39	0x3e89ba05	0.26899734
40	0x3e8c8691	0.27446416
41	0x409798fe	4.737426
42	0x3fbce6e2	1.475796
43	0x3e9c8a9e	0.30574507
44	0x3e2c216a	0.16809621
45	0x3e9f1ec2	0.31078154
46	0x3fd63b29	1.6736804
47	0x3f1f0d0c	0.6212928
48	0x3ea267a6	0.31719702
49	0x3f0b1fb8	0.54345274
50	0x3e7a1d44	0.24425226
51	0x3f0df5c3	0.5545313
52	0x3f9441b6	1.1582553
53	0x3fedd5e8	1.8580904
54	0x3d9c8616	0.07642762
55	0x3fdb5c71	1.7137586
56	0x3e145138	0.14484107
57	0x3e9975f1	0.29972795
58	0x3f10bde2	0.5653974
59	0x3e065b32	0.13120726
60	0x3f6c818e	0.92385185
61	0x3e3815fc	0.17977136
62	0x3f95928a	1.1685345
63	0x3f41522d	0.75516015
64	0x3faccb3a	1.349952
65	0x3e497a67	0.19675599
66	0x3dd9ce06	0.10634999
67	0x3f48a400	0.78375244
68	0x4004831a	2.0705018
69	0x3f2f645f	0.6851253
70	0x3de21768	0.11039621
71	0x3eaeda4e	0.34150928
72	0x3f3e6198	0.74367666
73	0x3e3cbd0f	0.18431495
74	0x3eb4bc03	0.35299692
75	0x3fe56012	1.7919943
76	0x3fa6c586	1.3029029
77	0x3f886ff1	1.0659162
78	0x3de36b23	0.11104419
79	0x3db57799	0.08860702
80	0x3f80709c	1.0034366
81	0x3fdade0a	1.7099011
82	0x3ef7c3dc	0.48391616
83	0x3f0b5d08	0.5443883
84	0x3e609421	0.21931507
85	0x3ed362b4	0.41286242
86	0x3e0447e1	0.12918045
87	0x3ee13c0b	0.43991122
88	0x3f7e218f	0.99269956
89	0x3fe9f7f9	1.82788
90	0x40052b59	2.0807707
91	0x3f0f457c	0.559654
92	0x3f773432	0.9656402
93	0x3fe2b248	1.7710657
94	0x3e46b929	0.1940657
95	0x3f970b25	1.1800276
96	0x3fee2724	1.8605695
97	0x3e2f7f61	0.17138435
98	0x3f91ea53	1.1399635
99	0x3ee709ef	0.45124766
100	0x3e00043d	0.12501617
101	0x3f8c2ccc	1.0951171
102	0x3ec9e0c5	0.39429298
103	0x3f4a023b	0.78909653
104	0x3e92ff2b	0.28710303
105	0x3ef6f1ad	0.4823126
106	0x3eacf9f3	0.33784446
107	0x3f8429d5	1.0325266
108	0x3ebccb55	0.3687388
109	0x3fa4c231	1.2871763
110	0x400b0e97	2.1727655
111	0x3fbedbaa	1.4910786
112	0x3f9c0338	1.2188482
113	0x3f8dd050	1.1079197
114	0x3f7ee130	0.9956236
115	0x3e88c37c	0.26711643
116	0x3fe02596	1.751147
117	0x3f64538f	0.8919
118	0x3f81782d	1.01148
119	0x3e490125	0.19629343
120	0x3da5b24e	0.080906495
121	0x3f83bfd3	1.0292915
122	0x3efd9736	0.49529427
123	0x3da3e8ee	0.08003412
124	0x3f7aeade	0.9801463
125	0x3e424633	0.18972091
126	0x3f9648de	1.1740987
127	0x3ed56df0	0.41685438

fire2.squeeze.weight f4 [16, 128, 1, 1]
0	0xbda83580	-0.08213329
1	0xbdab119e	-0.083529696
2	0x3bfb0322	0.0076602856
3	0xbdb66e0e	-0.0890771
4	0x3cbf682a	0.023365099
5	0xbcfd6fd0	-0.030937105
6	0x3b5b2a02	0.0033441787
7	0xbd38e0f6	-0.045136414
8	0x3c71c0f3	0.014755475
9	0xbc535b0c	-0.012900125
10	0x3c5db6d9	0.013532364
11	0xbd3bdac0	-0.045862913
12	0xbd415711	-0.047202174
13	0x3a8c8df4	0.0010723458
14	0xbd426290	-0.047457278
15	0xbd833c2d	-0.06407962
16	0xbdb6e7d7	-0.08930939
17	0xbd0e68de	-0.034767978
18	0xbcde9ae1	-0.027173461
19	0x3d5aee38	0.05344984
20	0x3d187d91	0.037229124
21	0x3c3d541c	0.011555698
22	0x3d0cd2d6	0.034380756
23	0x3cb0550e	0.021524932
24	0xbdc0dcf9	-0.09417147
25	0xbc965220	-0.018349707
26	0xbcd8691e	-0.026417311
27	0xbd7fceb5	-0.06245299
28	0x3b8cc078	0.004295405
29	0xbd38ea68	-0.045145422
30	0xbd537657	-0.05162653
31	0xb9a02b82	-0.00030549994
32	0xbd86c625	-0.06580762
33	0x3d50c72b	0.05097119
34	0x3d3520b5	0.044220645
35	0x3d84456a	0.06458552
36	0xbcefb68a	-0.029261846
37	0x3c8ed6ce	0.017436411
38	0xbc72c3e5	-0.014817213
39	0xbd90d80c	-0.07072458
40	0x3cb42d70	0.021994323
41	0xbd8baa20	-0.06819558
42	0xbd29225c	-0.041292533
43	0xbd45e153	-0.04831059
44	0xbdbc0931	-0.091814406
45	0xbba47bb7	-0.005019631
46	0x3b23ebb3	0.0025012314
47	0xbc7de18d	-0.01549567
48	0x3d3a59f5	0.045495946
49	0xbc0223b9	-0.007943087
50	0xbcebd1cc	-0.028786562
51	0xbd42e023	-0.047577035
52	0xbd7183ce	-0.05896359
53	0xbce5eb29	-0.028066235
54	0xbd38195a	-0.044946052
55	0xbd53c0d3	-0.051697563
56	0xbcaebd6d	-0.02133056
57	0xbcc08631	-0.023501487
58	0xbd6521de	-0.0559405
59	0x3d0867f9	0.03330228
60	0x3d6e7aa2	0.05822242
61	0xbd83bb54	-0.064322144
62	0x3ca07a6b	0.019589623
63	0xbd43c2ea	-0.047793306
64	0xbc7884ac	-0.01516835
65	0x3d6e0a47	0.05811527
66	0xb9fbd5a1	-0.00048033617
67	0xbdbb8244	-0.091557056
68	0x3d3ad4b9	0.045613024
69	0xbc5ec0fc	-0.013595816
70	0xbd7692e6	-0.060198687
71	0xbd60cbe9	-0.054881964
72	0x3d81969b	0.06327554
73	0xbc0d6d30	-0.008631989
74	0x3d1e7539	0.03868601
75	0x3d25ad20	0.040448308
76	0xbd2d7991	-0.042352263
77	0xbbf42f75	-0.0074519464
78	0xbd5d4ddb	-0.054029327
79	0x3d662c1b	0.056194406
80	0xbd557c39	-0.05212042
81	0x3d3a009a	0.04541073
82	0x380ddd02	3.382285e-05
83	0x3d00f808	0.03148654
84	0xbd92274d	-0.07136402
85	0xbc8f6334	-0.017503358
86	0x3ccf0bc6	0.025274169
87	0xbcaa558a	-0.020792741
88	0xbc3f68d0	-0.011682704
89	0x3ce61a5a	0.028088737
90	0xbd8cd451	-0.06876434
91	0xbcef73ec	-0.02923008
92	0x3c96d189	0.018410461
93	0x3cd58c87	0.026067985
94	0x3d83ef8a	0.06442173
95	0xbcb17d65	-0.021666238
96	0x3c137aa6	0.00900141
97	0xbd5da9d8	-0.054117054
98	0x3b9bf508	0.0047594346
99	0xbd50b4be	-0.05095362
100	0x3d2b8e48	0.041883737
101	0xbc52162d	-0.01282267
102	0x3cddf53c	0.027094476
103	0x3d0c0c0c	0.034191176
104	0x3a12b3c4	0.0005596245
105	0xbbad5d78	-0.0052906834
106	0xbcb291b7	-0.021797998
107	0xbd8e94ea	-0.06961997
108	0xbbd3dde9	-0.0064656627
109	0xbcabdb52	-0.020978604
110	0xbd8e2199	-0.06940002
111	0x3d636a49	0.055521283
112	0xbca8aa0f	-0.020588903
113	0xbc8b46cd	-0.017001534
114	0xbdb33de8	-0.08752042
115	0xbdb0dd6f	-0.08635985
116	0x3cbce9da	0.023060728
117	0xbd452249	-0.0481284
118	0xbd39a4f9	-0.045323346
119	0xbd00c080	-0.031433582
120	0x3d620d69	0.05518857
121	0xbcfc2478	-0.030779108
122	0x3d245dad	0.0401284
123	0x3d4ff9ce	0.05077534
124	0xbd9c517a	-0.07632728
125	0x3d10f2ae	0.035387687
126	0xbcfc46f8	-0.03079556
127	0x3d8e93ef	0.0696181
128	0x3c97c64b	0.01852717
129	0xbd627e9c	-0.055296525
130	0x3d49f473	0.04930539
131	0x3d5ad4e2	0.053425677
132	0xbd05605f	-0.03256261
133	0x3d990f04	0.07473567
134	0xbd8220b6	-0.06353895
135	0xbc7a65fb	-0.015283103
136	0x3db2ac9c	0.08724329
137	0x3d0ec8b0	0.03485936
138	0x3d204243	0.039125692
139	0xbd50addd	-0.05094706
140	0xbdd84d11	-0.10561574
141	0xbd209aad	-0.03921001
142	0xbd6f186a	-0.058372892
143	0x3d997ee7	0.07494908
144	0x3da66edf	0.08126616
145	0xbc7d7884	-0.015470628
146	0x3c705369	0.014668324
147	0x3dd71969	0.105028935
148	0xbd886769	-0.06660349
149	0xbdad29cf	-0.0845524
150	0xbd6ea419	-0.058261964
151	0x3cde209b	0.027115157
152	0xbd243b29	-0.040095482
153	0xbc878b1b	-0.016545823
154	0x3d59e002	0.053192146
155	0x3ba49186	0.0050222306
156	0x3d3e92e9	0.046526823
157	0xbd87cbd3	-0.06630673
158	0x3d43e33c	0.04782413
159	0xbce3ee5b	-0.027823618
160	0xbd2a3f2c	-0.04156415
161	0xbd394811	-0.045234744
162	0x3d9c9621	0.07645822
163	0xbd773d85	-0.060361404
164	0x3badb6d9	0.005301338
165	0xbd44a67d	-0.048010338
166	0x3c9a1434	0.018808462
167	0x3d03df03	0.032195102
168	0xbd418ced	-0.047253538
169	0x3d09bfaa	0.03363005
170	0xbc813a04	-0.015774734
171	0x3d64d44a	0.055866517
172	0x3d6ae8f7	0.05735108
173	0x3c844169	0.016144471
174	0xbd4b6afe	-0.049662583
175	0xba91f0c4	-0.0011134376
176	0xbd4eabaf	-0.0504567
177	0x3c5eb023	0.013591799
178	0x3d39ff72	0.045409627
179	0x3c5ca85a	0.0134678725
180	0x3daeebaa	0.08541043
181	0xbd13df2c	-0.036101505
182	0xbd7291a9	-0.059220944
183	0xbd6210c3	-0.055191766
184	0x3d81324e	0.06308423
185	0xbcdd4a89	-0.02701308
186	0xbdc01745	-0.09379438
187	0xbc1e6cc3	-0.0096694855
188	0xbdd3d758	-0.10343808
189	0xbe0d9c19	-0.13829078
190	0x3d1a6ebb	0.037703257
191	0xbd0d2414	-0.034458235
192	0xbdb2c2b2	-0.087285414
193	0xbd7eeec7	-0.062239435
194	0x3d7e7c21	0.062130097
195	0xbcb1d53b	-0.021708122
196	0xbdd6dee3	-0.10491731
197	0x3db2b251	0.087254174
198	0x3c429d0f	0.011878266
199	0x3e026f0a	0.1273767
200	0xbc7fe93e	-0.015619574
201	0xbdda431c	-0.10657331
202	0x3d90ffa4	0.070800096
203	0xbdc92c6c	-0.09822926
204	0xbbd90d43	-0.0066238954
205	0x3d7b4b5d	0.06135117
206	0x3d34de1e	0.04415714
207	0xbdc56ddb	-0.09640094
208	0x3d29c715	0.041449625
209	0x3d789a29	0.060693894
210	0xbda3557b	-0.079752885
211	0xbb1acb1a	-0.0023619593
212	0x3d75cdd9	0.060010765
213	0x3d3d981f	0.046287652
214	0xbe0b565b	-0.13607161
215	0x3dc80e86	0.09768395
216	0xbcf020c4	-0.029312499
217	0x3d3d26aa	0.04617945
218	0xbd510cbb	-0.05103753
219	0xbd7d2ae2	-0.061808474
220	0xbd8aded5	-0.06780783
221	0x3d448feb	0.047988813
222	0x3c278ecc	0.0102269165
223	0xbc990961	-0.01868123
224	0x3d2ff9be	0.042962782
225	0xbc1e8ffe	-0.009677885
226	0xbd9b0229	-0.075687714
227	0xbdb53da8	-0.088496506
228	0xbd9dba52	-0.077015534
229	0xbdac4099	-0.084107585
230	0x3cbdb616	0.023158114
231	0xbbae138a	-0.005312388
232	0xbd109e8d	-0.035307456
233	0xbe0ef3f3	-0.13960247
234	0xbd1a7de5	-0.03771772
235	0xbde26bcc	-0.11055717
236	0xbcdf3295	-0.0272458
237	0xbc4ab10a	-0.012371311
238	0xbd7c6c5d	-0.06162678
239	0x3cc4332b	0.02395018
240	0xbc93da3e	-0.018048402
241	0xbde7d556	-0.113199875
242	0xbdfd6862	-0.12373425
243	0x3caafe05	0.02087308
244	0xbd552154	-0.052033737
245	0x3ce4133f	0.027841209
246	0xba837ec9	-0.0010032292
247	0x3ccd487c	0.025058977
248	0xbd09e063	-0.033661257
249	0x3d5e2ed9	0.054243896
250	0xbd8b9c92	-0.06816973
251	0xbd2ebe12	-0.042661734
252	0x3d6cd4f4	0.057820275
253	0x3cb5bfae	0.022186127
254	0xbdbb69d0	-0.091510415
255	0xbc38671b	-0.011255051

fire2.squeeze.bias f4 [16]
0	0x3d251063	0.04029883
1	0x3ca1d0d4	0.019752897
2	0x3de1895c	0.11012527
3	0x3e461c64	0.19346768
4	0xbd9b786f	-0.0759133
5	0x3dc7a1ff	0.09747695
6	0x3d8497f4	0.06474295
7	0xbd9d94d6	-0.07694404
8	0x3e051895	0.12997659
9	0x3d505fbd	0.050872553
10	0xbd40f7b9	-0.047111247
11	0xbd242f88	-0.04008439
12	0x3d49a289	0.04922727
13	0x3e79f17d	0.24408527
14	0x3d9c606b	0.07635578
15	0x3e24df2b	0.16100757

fire2.expand1x1.weight f4 [64, 16, 1, 1]
0	0x1d5d2471	2.9267946e-21
1	0xbe8949c4	-0.2681409
2	0x3ddbe55c	0.10737106
3	0xbd6458f2	-0.055748887
4	0x3c269b44	0.010168854
5	0x3d9d2a87	0.07674127
6	0x3c4f0ac9	0.012636849
7	0xb86ebc5b	-5.691904e-05
8	0x3cce3a09	0.025174158
9	0x3e0b8de6	0.13628349
10	0xbd4b1387	-0.04957917
11	0xbe2cca10	-0.16873956
12	0xbe5207c2	-0.20510772
13	0x3df60330	0.12012327
14	0xbd816c40	-0.06319475
15	0x3e198441	0.14991857
16	0x33ce7f8b	9.6158224e-08
17	0xbe6d2744	-0.2315951
18	0x3d569d24	0.052395955
19	0xbda0724d	-0.07834301
20	0xbdbcf4e9	-0.092264004
21	0x3e0a1876	0.13485894
22	0x3b8926a8	0.0041855164
23	0x80006e19	-3.9496e-41
24	0x3e229ccd	0.15880127
25	0x3e4d22f6	0.20032868
26	0xbdab70ef	-0.0837115
27	0xbe053c03	-0.13011174
28	0xbe2e36a8	-0.17013037
29	0xbe26ac07	-0.1627656
30	0xbe41e0fa	-0.18933478
31	0x3e05b78a	0.13058296
32	0x90d2fe4e	-8.3222213e-29
33	0x3e72444f	0.2365887
34	0x3da5fd23	0.081049226
35	0xbc9c55d4	-0.019083895
36	0x3d1df1ec	0.038560793
37	0x3d2f76a1	0.042837743
38	0x3d81bc15	0.06334702
39	0xbdae6296	-0.085148975
40	0xbbf79c40	-0.0075564682
41	0x3d78c4c6	0.060734533
42	0x3e031d76	0.12804207
43	0xbad09ed0	-0.001591647
44	0xbe1c542f	-0.15266488
45	0x3dd36d1e	0.10323547
46	0xbe62e3d8	-0.22157228
47	0x3e54dec7	0.20788108
48	0x3dbdc7cf	0.09266626
49	0x3d1abdf0	0.037778795
50	0x3bf00502	0.0073248157
51	0x3dbe5188	0.092928946
52	0xbda7f453	-0.08200898
53	0xbe40e2a3	-0.18836455
54	0xbe21c48d	-0.15797634
55	0x3e26c0e2	0.16284516
56	0xbdd15c5a	-0.10222693
57	0xbe2bccdc	-0.16777366
58	0xba057fa6	-0.00050925685
59	0xbe0186d7	-0.12649094
60	0xbc4de3eb	-0.012566547
61	0xbe526ca3	-0.20549254
62	0xbd300b43	-0.04297949
63	0xbd0f53ce	-0.03499203
64	0x3b8a99d5	0.004229764
65	0x3cf19a28	0.029492453
66	0xbe1ce0e5	-0.15320165
67	0xbde31dc8	-0.11089665
68	0xbe05eb36	-0.13078007
69	0x3e40215f	0.1876273
70	0xbe0adac9	-0.13560022
71	0x3d341c24	0.04397215
72	0x3d71f4bf	0.0590713
73	0xbe47852c	-0.19484395
74	0xbdf39902	-0.11894418
75	0xbd70ad90	-0.058759272
76	0xbe2d51cc	-0.16925734
77	0x3e0346ac	0.12819928
78	0xbd82b50f	-0.063821904
79	0x3d35348b	0.044239562
80	0xbc9b55a4	-0.018961735
81	0x3c89bf19	0.016814755
82	0x3dd423a8	0.103583634
83	0xbd9ba042	-0.07598926
84	0xbcc66bb6	-0.024221282
85	0xbd9b324b	-0.07577952
86	0xbd2f62b2	-0.042818733
87	0x3e136d07	0.1439706
88	0x3cbc9d5f	0.02302426
89	0x3eb1887e	0.34674448
90	0x3d52f3a3	0.05150188
91	0xbdb6da2b	-0.08928331
92	0x3e171f16	0.14757952
93	0x3dd60eae	0.10452019
94	0x3c45c0c0	0.012069881
95	0x3d9a3a07	0.07530599
96	0x00094841	8.52439e-40
97	0x3d4d9ded	0.050199438
98	0x3d565661	0.05232847
99	0xbd899dc1	-0.06719542
100	0x3de30b7b	0.11086174
101	0x3dd0a633	0.1018795
102	0xbe53159d	-0.20613714
103	0x3e25fe93	0.16210394
104	0xbca247d2	-0.019809637
105	0x3da3797f	0.07982158
106	0x3e40667a	0.18789092
107	0xbe232868	-0.15933383
108	0xbe438a56	-0.1909574
109	0xbe0b67c8	-0.13613808
110	0xbd23ea30	-0.04001826
111	0xbd6927fb	-0.056922894
112	0xba96ec36	-0.0011514488
113	0x3c936fa7	0.017997576
114	0xbe3a8341	-0.18214132
115	0x3d16e931	0.036843482
116	0x3e27ab97	0.1637405
117	0xbd904804	-0.07044986
118	0x3dd0c3f3	0.10193624
119	0x3d0e1de7	0.034696486
120	0xbdb8ff95	-0.090331234
121	0x3d1d7474	0.038441136
122	0x3c831f11	0.016006025
123	0x3dcf3a2e	0.10118519
124	0xbe3022ad	-0.17200728
125	0x3dbae4bd	0.091256596
126	0xbe392446	-0.18080243
127	0xbe41fa6d	-0.18943186
128	0xbb830646	-0.0039985506
129	0xbe4cc888	-0.19998372
130	0x3d789720	0.060691
131	0xb9575adb	-0.00020537844
132	0xbc3c1ca6	-0.01148144
133	0xbe2d2e30	-0.1691215
134	0x3dbad291	0.091221936
135	0x3c5573b8	0.013028078
136	0xbd9a4664	-0.07532957
137	0x3dafa4ad	0.08576331
138	0x3d73d34e	0.059527688
139	0xbd8c61ad	-0.06854568
140	0xbd1c838d	-0.038211394
141	0xbdc9a9e5	-0.09846858
142	0xbb869df8	-0.004108187
143	0x3d4909fc	0.049081787
144	0xbc83e1d8	-0.016098902
145	0x3e3d9f8c	0.18517894
146	0xbd959766	-0.073042676
147	0xbc7e4235	-0.015518715
148	0x3ce2abe6	0.027669858
149	0xbc4e26b4	-0.01258247
150	0x3e7cdcb6	0.2469357
151	0x3dc473ea	0.09592421
152	0x3d484943	0.048897993
153	0xbd9f1a66	-0.07768707
154	0x3beda41c	0.0072522294
155	0xbe4f0669	-0.20217289
156	0xbd5e299d	-0.054238904
157	0x3d89d0e6	0.06729297
158	0xbe8335bf	-0.25626943
159	0xbb2d35ba	-0.0026429729
160	0x331574c2	3.4797957e-08
161	0x3d2ed9cb	0.042688172
162	0xbe8e7525	-0.2782375
163	0xbd0c7cbc	-0.034298643
164	0xbd3b411f	-0.0457164
165	0x3e4a8b75	0.19779761
166	0xbd312f7c	-0.043258175
167	0xb2ebcb29	-2.7449987e-08
168	0xbdbec13f	-0.093142025
169	0x3e1546d5	0.14577802
170	0x3da3d2ec	0.079992145
171	0x3d345d6a	0.0440344
172	0x3e202011	0.15637232
173	0x3dd35536	0.10318987
174	0xbde7ba11	-0.11314786
175	0xbe257df1	-0.16161324
176	0xa6508b67	-7.235342e-16
177	0x3e0acd7a	0.13554946
178	0x3e2efe32	0.17089155
179	0xbdee9564	-0.11649588
180	0xbd9d4d8a	-0.07680805
181	0x3d900e86	0.0703402
182	0xbc2807ae	-0.010255737
183	0x3e216014	0.15759307
184	0xbcbfeaf3	-0.023427462
185	0x3dfc1e59	0.12310476
186	0xbe461cc8	-0.19346917
187	0x3db0a39a	0.086249545
188	0x3d80a041	0.06280566
189	0x3d1e0fdc	0.038589343
190	0x3de8c94b	0.113665186
191	0x3ddaf9e7	0.10692196
192	0xbba4b50d	-0.0050264657
193	0xbdc362f1	-0.09540356
194	0xbe1587c8	-0.14602578
195	0x3e9153bb	0.28384194
196	0x3e444d95	0.1917022
197	0xbc8e4735	-0.017367939
198	0x3e02a45f	0.12758015
199	0x3e12901d	0.14312787
200	0x3e00477e	0.12527272
201	0x3d343d19	0.04400358
202	0x3c4441bb	0.011978562
203	0xbd7bb4af	-0.06145161
204	0xbc1f2d85	-0.009715443
205	0x3e46a90b	0.19400422
206	0xbd5033cf	-0.05083066
207	0x3d7d3b62	0.06182421
208	0x00438148	6.199356e-39
209	0x3dd558ee	0.104173526
210	0x3df6edce	0.120570764
211	0x3cafddd1	0.021468075
212	0x3dcd0a01	0.10011674
213	0x3e2f335f	0.1710944
214	0xbda75f02	-0.08172418
215	0x3e32933f	0.17438982
216	0x3d8fdd0c	0.07024583
217	0x3e99db39	0.30050066
218	0xbe007c56	-0.1254743
219	0xbdcd091e	-0.100115046
220	0xbdbc65c9	-0.091991015
221	0xbca5088d	-0.020145679
222	0x3d8ed2ce	0.069738016
223	0xbdc25b9c	-0.09490129
224	0x3d1933f7	0.037403073
225	0x3d835484	0.064126045
226	0xbd70a0e2	-0.05874718
227	0xbc5d550d	-0.013509047
228	0xbc40f548	-0.01177723
229	0xbdfb741c	-0.122780055
230	0xbd05994d	-0.032616902
231	0x3de19f06	0.110166594
232	0xbcfe555a	-0.031046558
233	0x3e4c7d38	0.19969642
234	0xbd094a4e	-0.033518128
235	0xbcd105a9	-0.025515394
236	0xbccc4663	-0.024935907
237	0xbd85f0c2	-0.065400615
238	0xbabc554a	-0.001436868
239	0x3bb522bc	0.0055278223
240	0xbe0db059	-0.13836803
241	0xbe0371ba	-0.12836352
242	0xbd8353c1	-0.06412459
243	0xbdb2c9d8	-0.08729905
244	0x3d23dcc8	0.040005475
245	0x3e2863d1	0.16444327
246	0xbe279bb2	-0.16367987
247	0xbc9123dc	-0.017717294
248	0x3e4714e7	0.19441567
249	0xbdf7515d	-0.12076066
250	0xbe2e3e86	-0.17016038
251	0x3d7ac41e	0.06122219
252	0xbda29da4	-0.07940224
253	0xbc802f0a	-0.01564743
254	0xbb04de16	-0.0020273975
255	0xbe5e1153	-0.21686296

fire2.expand1x1.bias f4 [64]
0	0xbe969422	-0.2940989
1	0x3c012fa1	0.007884891
2	0xbe55bc9b	-0.20872729
3	0xbe0fe27f	-0.14051245
4	0xbcadf5e3	-0.021235412
5	0x3e9b631b	0.3034905
6	0xbc6c666e	-0.014428718
7	0x3d02ca90	0.03193146
8	0xbe2bfec1	-0.167964
9	0xbe00a038	-0.12561119
10	0xbcb148dd	-0.02164119
11	0x3e354dfe	0.17705533
12	0xbe434575	-0.19069465
13	0x3e6acdb9	0.2293004
14	0x3e5a9f99	0.21349944
15	0xbc77a51a	-0.015115047
16	0xbe3d88a3	-0.18509154
17	0xbe912206	-0.2834627
18	0x3e47feba	0.19530764
19	0xbe1219c7	-0.14267646
20	0x3e4558f9	0.19272222
21	0xbe7991fb	-0.24372093
22	0x3d2713d6	0.0407904
23	0xbe182f92	-0.14861897
24	0x3cb22dd0	0.02175036
25	0xbc804ba3	-0.015661066
26	0xbe8a6307	-0.27028677
27	0x3da235e0	0.07920432
28	0xbe93d777	-0.28875324
29	0xbdf3099f	-0.118670695
30	0x3d964ac0	0.07338476
31	0xbe851503	-0.25992593
32	0x3ca3168b	0.01990821
33	0x3b6e8b6f	0.0036399027
34	0xbd939c3d	-0.072075345
35	0xbe451b3c	-0.1924867
36	0x3d6a7a50	0.057245553
37	0xbd0d888b	-0.034554046
38	0xbd1f0822	-0.038826115
39	0xbe20e1ef	-0.15711187
40	0xbe1ef9b9	-0.15524949
41	0xbdc59e9c	-0.09649393
42	0x3e07e4ec	0.1327092
43	0xbe835374	-0.25649607
44	0xbe6f09f7	-0.23343645
45	0xbe85b45a	-0.2611416
46	0xbe31308e	-0.17303678
47	0xbcac6fe5	-0.02104945
48	0xbe4c8fc3	-0.19976716
49	0xbc849e15	-0.01618866
50	0x3e8ca162	0.27466875
51	0x3d36ccce	0.04462891
52	0x3e95dc15	0.29269472
53	0xbc856bba	-0.01628672
54	0x3ed8bf21	0.4233332
55	0xb8bb9f49	-8.946524e-05
56	0xbe3a1b3b	-0.1817445
57	0x3c944284	0.018098123
58	0xbed34da4	-0.41270173
59	0x3d9a26fc	0.07526967
60	0x3d7f6bf3	0.062358808
61	0xbeb56de4	-0.35435402
62	0xbe9aeab6	-0.30257195
63	0x3e9b2dfc	0.3030852

fire2.expand3x3.weight f4 [64, 16, 3, 3]
0	0x3c8a17c6	0.01685704
1	0xbc6b5cd3	-0.014365393
2	0xbc1813e7	-0.009282089
3	0xbb1e8a9f	-0.0024191511
4	0xb9d087b9	-0.00039773973
5	0x38170867	3.600903e-05
6	0xbccd75d9	-0.025080608
7	0x3ae7be93	0.0017680697
8	0x3b6200ca	0.0034485334
9	0xbd7333f0	-0.059375703
10	0x3d1361fc	0.035982117
11	0x3c95d266	0.018288802
12	0x3d1463a4	0.036227837
13	0x3d398543	0.045293104
14	0x3c072385	0.008248215
15	0xbd42442b	-0.04742829
16	0xbd5d53b7	-0.054034915
17	0x3ae998c5	0.0017822018
18	0x3d85fd23	0.065424226
19	0xbabacf2f	-0.0014252419
20	0xbd930500	-0.07178688
21	0xbd7d4f40	-0.061843157
22	0x3d0a68e6	0.033791445
23	0xbb3478c8	-0.0027537812
24	0x3d70a676	0.0587525
25	0x3c501d5c	0.012702312
26	0x3d75a57d	0.059972275
27	0xbb83792c	-0.0040122475
28	0xbc7afd68	-0.015319206
29	0x3c9a3041	0.018821837
30	0x3d1d753d	0.038441885
31	0x3d124cd7	0.03571781
32	0x3cfadb36	0.030622106
33	0xbd40b6c5	-0.047049303
34	0xbd4a141b	-0.04933558
35	0x3d9aedd8	0.07564896
36	0xbd1b0fef	-0.037856992
37	0x3bebb3c0	0.0071930587
38	0x3c36eec1	0.011165322
39	0x3d11889e	0.03553068
40	0xbcfb4047	-0.030670298
41	0xbc9b7c0f	-0.018980054
42	0x3b37695d	0.0027986385
43	0xbb9f2fec	-0.0048580077
44	0xbd7ac22d	-0.061220337
45	0x3c709bcc	0.014685582
46	0xbd9b2719	-0.07575817
47	0xbc5b16ae	-0.0133721065
48	0xbae2aa3e	-0.0017293168
49	0x3d3774ed	0.044789243
50	0xbc79e44d	-0.015252185
51	0xbd6fdb85	-0.05855896
52	0xbd483a09	-0.04888347
53	0xbbfc6fbb	-0.007703749
54	0xbd33f891	-0.043938223
55	0xbc905555	-0.017618814
56	0x3d137c02	0.036006935
57	0x3d973ffd	0.07385252
58	0x3d1be4b5	0.03805991
59	0xbd24e603	-0.04025842
60	0x3cb310b1	0.021858545
61	0xbcde325e	-0.027123626
62	0x3d498ba8	0.049205452
63	0xbc374cbc	-0.0111877285
64	0x3d630777	0.05542704
65	0xbb12b553	-0.002238591
66	0x3d3edea7	0.046599057
67	0x3d12fc80	0.035885334
68	0xbb82ed3d	-0.003995566
69	0x3d1764b9	0.03696129
70	0xbc315dd6	-0.010825595
71	0x3d353bfe	0.044246666
72	0x3cd9a2d7	0.026566906
73	0xbda76469	-0.081734486
74	0xbd54d2ee	-0.05195897
75	0x3cd2aad4	0.025716223
76	0x3d0a2cb8	0.033734053
77	0xbd585f3e	-0.052825205
78	0xbd90a1e2	-0.07062127
79	0xbcfea922	-0.031086508
80	0xbbbfeb10	-0.005856879
81	0x3c9f05ae	0.019411888
82	0xbd32b505	-0.043629665
83	0xbbd80b4d	-0.006593144
84	0xbd10a3c2	-0.03531242
85	0x3d48be9c	0.049009904
86	0x3d23222e	0.03982752
87	0xbbabcc34	-0.005242849
88	0xbc9734bf	-0.018457768
89	0x3dc2630e	0.094915494
90	0x3d4fad04	0.05070211
91	0xbccca58a	-0.024981279
92	0x3d77e599	0.060521696
93	0xbd4f3661	-0.05058897
94	0x3c83280a	0.016010303
95	0xbc4f715f	-0.012661307
96	0xbb675288	-0.0035296995
97	0xbcd6f7cf	-0.026241211
98	0x3cefcde1	0.029272975
99	0x3b975ced	0.004619232
100	0xbc5e7892	-0.013578551
101	0xbbf2a3ed	-0.0074047954
102	0x3d68d869	0.05684701
103	0x3d956425	0.07294492
104	0xbd5814fa	-0.05275438
105	0xbd893738	-0.06699985
106	0xbd7d1217	-0.06178483
107	0xbd2be1c9	-0.041963372
108	0xbd28a56b	-0.04117338
109	0xbca7fcfe	-0.020506378
110	0xbd3bd66e	-0.045858793
111	0xbd0b8b09	-0.03406814
112	0x3d7d4720	0.06183541
113	0x3d832ff2	0.06405629
114	0xbd77ae7b	-0.060469132
115	0xbdb621d1	-0.08893169
116	0xbd8e07b4	-0.06935063
117	0xbdae4338	-0.08508915
118	0xbc342079	-0.01099407
119	0xbc74b03c	-0.014934596
120	0xbd549ceb	-0.05190746
121	0xbcdc78a8	-0.026913002
122	0xbdb9ecf3	-0.090783976
123	0xbd966118	-0.07342738
124	0x3d0a89a3	0.033822667
125	0xbc7df386	-0.015499955
126	0xbdcce49f	-0.100045435
127	0x3d26ae93	0.04069383
128	0xbd3c6352	-0.045993157
129	0xbba41902	-0.005007864
130	0x3c8a6f69	0.016898828
131	0x3b774f13	0.003773634
132	0xbda1d0bb	-0.0790114
133	0x3d5ff1cf	0.054673966
134	0xbd412d9d	-0.04716264
135	0x3aeff603	0.001830757
136	0x3cc81bd7	0.024427338
137	0x3cc7897e	0.024357554
138	0x3d21fc88	0.039547473
139	0xbd1fafb1	-0.03898591
140	0x3d4d396e	0.050103597
141	0x3d24c065	0.040222544
142	0xbda0e3f3	-0.07855978
143	0xbd4e0e50	-0.05030662
144	0x3c4ed9db	0.012625183
145	0xbc846d68	-0.01616545
146	0xbd453980	-0.04815054
147	0x3cf1d2ff	0.029519556
148	0x3c4a1d5c	0.012336101
149	0x3c39e8b8	0.011346988
150	0x3d52a434	0.051426128
151	0x3c0ce2c0	0.008598983
152	0x3d4e085c	0.05030094
153	0x3d8d8252	0.06909622
154	0xbbc4c69c	-0.0060051214
155	0x3d9f92ad	0.07791648
156	0x3e2153d2	0.15754631
157	0xbdab1074	-0.083527476
158	0x3d815334	0.06314698
159	0xbcea0eb6	-0.028571468
160	0xbd6b8c9f	-0.057507154
161	0xbe1b8a66	-0.15189514
162	0x3d429fb2	0.04751558
163	0x3cbbe7de	0.022937711
164	0x3c620eb6	0.013797453
165	0x3d23a914	0.039956167
166	0x3d7ca077	0.06167647
167	0xbd0b31bd	-0.03398298
168	0xbdb6e6b3	-0.08930721
169	0xbc6c551a	-0.014424587
170	0xbd39bd4d	-0.045346547
171	0x3cb1ba5d	0.02169531
172	0x3d6294a8	0.05531755
173	0x390b57a7	0.00013288726
174	0x3ddc01f4	0.1074256
175	0xbdd8cfa1	-0.10586477
176	0xbd29812e	-0.04138296
177	0xbdd16dfa	-0.102260545
178	0xbdf65448	-0.12027794
179	0xbe1ca0d8	-0.15295732
180	0xbaca6626	-0.001544182
181	0xbd458f21	-0.0482322
182	0xbd018a87	-0.03162625
183	0x3db802fa	0.08984943
184	0x3da025ce	0.07819711
185	0x3d098759	0.033576343
186	0xbce2a0a7	-0.027664496
187	0x3d4140cb	0.047180932
188	0xbc400db7	-0.01172202
189	0xbdb4f9dd	-0.0883672
190	0x3d865a98	0.06560248
191	0xbd9f8545	-0.07789091
192	0x3d410faf	0.047134098
193	0xbd7050bf	-0.058670755
194	0xbdcb526f	-0.09927832
195	0xbd2d9380	-0.042376995
196	0xbaa123fd	-0.001229405
197	0x3c0cf762	0.0086039025
198	0xbdd2a588	-0.10285479
199	0xbd8b2e82	-0.0679598
200	0xbcee03b1	-0.029054495
201	0x3ce5673b	0.028003326
202	0xbcbfc72c	-0.023410402
203	0x3d30de12	0.043180533
204	0xbba71dd9	-0.0050999937
205	0x3d881030	0.066437125
206	0x3de74c4b	0.112938486
207	0xbcb17219	-0.021660851
208	0xbc861625	-0.016367981
209	0x3d0a155c	0.033711776
210	0xbd25d0d9	-0.040482376
211	0xbca7fd9e	-0.020506676
212	0x3d110e77	0.035414185
213	0xbb337b98	-0.00273869
214	0xbba79375	-0.005114014
215	0xbbdad2f5	-0.00667798
216	0xbc3af1c9	-0.011410185
217	0xbc9c9373	-0.019113278
218	0x3c8230ae	0.015892353
219	0x3c9d3c19	0.019193696
220	0xbd28e42e	-0.041233234
221	0x3d4627e5	0.04837789
222	0x3b06711a	0.002051419
223	0xbdae20f6	-0.085023805
224	0x3dadca6b	0.08485874
225	0x3cfae06d	0.030624593
226	0x3b996ba9	0.0046820235
227	0xbce949cc	-0.028477572
228	0x3d43ddff	0.047819134
229	0xbdb47e0a	-0.088131025
230	0xbd8a6e8a	-0.06759365
231	0xbcd01a04	-0.02540303
232	0xbe0ed506	-0.1394845
233	0xbca289ba	-0.019841064
234	0x3d9f2c23	0.0777209
235	0xbd4e7483	-0.050404083
236	0x3d5e2881	0.054237846
237	0xbc5c4f32	-0.013446616
238	0xbc9edfa7	-0.019393755
239	0x3cb89f11	0.022536786
240	0x3d07e353	0.033175778
241	0xbd62bd58	-0.055356354
242	0x3d94614e	0.07245122
243	0x3d918313	0.071050785
244	0xbd349e2f	-0.044096168
245	0x3ce713e0	0.02820772
246	0x3be2c135	0.0069200047
247	0x3d1de826	0.038551472
248	0x3b699ea0	0.0035647526
249	0x3c8ac6fc	0.016940586
250	0x3c816651	0.015795859
251	0x3da0ffe8	0.0786131
252	0x3cd691f9	0.026192652
253	0x3e73e6d1	0.23818518
254	0xbd059a77	-0.032618012
255	0xbd360891	-0.044441763

fire2.expand3x3.bias f4 [64]
0	0xbdb17701	-0.08665276
1	0xbe1c1ec2	-0.15246108
2	0x3ca717fe	0.020397183
3	0xbe453924	-0.19260079
4	0x3e0bb4ce	0.1364319
5	0xbccbcf44	-0.024879105
6	0xba641d35	-0.0008701862
7	0xbde223a4	-0.11041954
8	0x3d048f59	0.03236327
9	0x3d007e98	0.03137073
10	0xbec70930	-0.38874197
11	0x3cb46d3a	0.02202474
12	0xbd493eec	-0.049132273
13	0xbcecc97c	-0.028904669
14	0xbd1e4e09	-0.03864864
15	0xbdefbd5b	-0.117060386
16	0x3c66d27c	0.014088269
17	0x3bb93e2a	0.0056531625
18	0xbd9728f5	-0.07380859
19	0xbe196594	-0.14980155
20	0x3bcc1998	0.006228637
21	0xbe779b0b	-0.24180238
22	0x3cc46441	0.023973586
23	0xba6234a2	-0.0008629059
24	0xbdb05c82	-0.086113945
25	0xbc019766	-0.007909631
26	0xbe5b204a	-0.21399036
27	0xbdb1e99f	-0.08687138
28	0x3da0c7f3	0.07850637
29	0xbe25b048	-0.16180527
30	0xbd6cb245	-0.0577872
31	0xbda71459	-0.08158178
32	0xbdb420e3	-0.08795335
33	0xbdb27acd	-0.08714829
34	0x3da4ec4e	0.08052884
35	0xbdd6ebca	-0.10494192
36	0x3cf9d33c	0.030496232
37	0xbd4fcce0	-0.050732493
38	0xbcf0b331	-0.02938232
39	0xbe370d84	-0.1787625
40	0x3db317de	0.08744787
41	0xbd9ddec9	-0.077085085
42	0x3c37e47b	0.011223908
43	0x3c38b464	0.011273477
44	0xbc8961f8	-0.016770348
45	0xbd80328c	-0.06259641
46	0xbc81f24e	-0.01586261
47	0xbb3272de	-0.002722911
48	0xbdf6b571	-0.12046326
49	0xbd201888	-0.039085895
50	0x3cb86b7a	0.022512186
51	0x3d6cacd2	0.057782
52	0x3cfd7c4e	0.030943062
53	0xbd74f8b1	-0.059807483
54	0xbc3f464a	-0.011674473
55	0xbdcdb884	-0.10044959
56	0xbdd45a80	-0.10368824
57	0x3c87ee4e	0.016593125
58	0xbc1cbcc6	-0.0095664915
59	0x3c6fe2ab	0.014641444
60	0xbd84d780	-0.06486416
61	0x3d3726fe	0.04471492
62	0x3de03aed	0.10948739
63	0xbd92d6e9	-0.07169897
