Task4/checkpoints/preetrain_triplet2.pt (torch, 57854 bytes, 12 tensors)

conv1.weight f4 [64, 3, 3, 3]
0.0429473 0.0983066 -0.19166617 -0.1145586 -0.08399102 0.044268366 0.04834612 0.19779393
0.015483236 0.09177105 -0.067344874 -0.081600234 -0.17773512 -0.149095 -0.1015891 0.0592678
0.12862135 0.1563338 -0.1275736 -0.13278584 -0.006696862 0.13119207 -0.10022839 0.07800867
-0.0033673374 0.03571947 0.17230798 -0.16262391 -0.09495356 -0.020335875 -0.033497788 0.17216933
-0.15615238 0.02632171 -0.12877087 -0.23844709 -0.09293837 0.20082375 0.12879515 0.13762599
0.025297537 -0.10348368 0.15033522 -0.15778361 -0.15288405 -0.13361783 0.10088049 0.07982088
-0.094524585 -0.04753564 0.048165116 0.25007504 0.03896022 -0.064606816 0.063292116 -0.13718653
0.0411801 -0.18546376 -0.17924474 -0.1352071 0.12325996 0.095178574 -0.12700762 -0.008745099
0.08887743 -0.0173475 -0.009438421 0.026880778 0.10296428 0.26047838 -0.08753947 -0.042512655
0.01411253 0.14518474 0.1658766 0.14289632 0.002148038 -0.21312226 0.07738884 -0.093501374
-0.20161608 0.21881323 0.15691599 -0.22311024 0.03184617 -0.029181123 -0.06868167 -0.07727543
0.091077 -0.12065977 0.1482083 0.13650627 0.12090768 0.09562408 -0.16040052 -0.14943448
0.13825636 0.08808886 -0.13278283 -0.05361871 0.21946184 0.12253115 -0.07054651 -0.018568672
-0.19688544 0.035287295 -0.08945565 -0.10575644 -0.02288243 0.010337776 -0.09755778 0.11413113
-0.16041748 0.14826722 0.16067228 -0.18464588 -0.048204932 0.0027877812 0.0053351726 0.017184058
0.084981315 -0.0401415 -0.12994884 0.135538 -0.1978196 -0.11569046 -0.05311983 -0.11927121
-0.0925771 -0.15417114 -0.10740873 -0.0005910056 -0.0913547 -0.04065762 0.12327253 -0.04903682
-0.017121714 -0.024005005 0.02595339 0.092305034 0.15906332 0.084076814 0.15387511 -0.046161674
-0.19268376 -0.09450683 0.1533089 -0.0062358696 -0.11322651 -0.14788412 -0.22245656 -0.18697755
-0.056034036 0.08063329 0.09031408 -0.18312462 0.10622059 -0.19083418 -0.077200264 -0.14234248
-0.10225911 -0.111718446 -0.23759569 -0.16651304 -0.030431349 -0.071325466 -0.089733675 0.0698041
-0.25844815 -0.030326415 0.17417617 -0.11001462 0.18354629 0.07692866 -0.20219912 0.13223317
-0.013309549 -0.12303597 0.15066016 -0.13275005 -0.0008787289 -0.024970025 0.15424637 0.042344537
0.11211629 0.09096699 -0.056043465 -0.030851183 -0.11941545 0.08140775 0.12892757 0.10010024
-0.16140738 -0.029793391 -0.19437371 -0.1049181 -0.14439936 -0.000880394 -0.122326806 -0.009272384
-0.010554683 0.11915916 -0.16174464 -0.17340788 -0.0821229 0.12831244 -0.1124258 0.16991016
0.08015628 0.025728447 0.01268708 -0.03929991 0.0111092 0.009624281 0.017830858 0.023358874
-0.11709288 -0.08433424 0.14483316 -0.13029501 0.004352844 0.16347976 0.081498034 0.017320681
-0.2749457 0.1342853 -0.1106372 -0.0534163 -0.032592345 -0.0043639014 -0.01860681 0.20464149
0.06861775 0.09787016 0.10400852 -0.14389068 0.050359484 -0.1530226 -0.104861416 -0.001782878
0.071240544 0.15496615 -0.1547298 0.003758 0.055309426 -0.22045152 0.15510467 -0.14567463
0.009432668 -0.0007712505 -0.07074867 0.03411937 0.14556034 -0.1408057 -0.19381456 -0.07201734
00000000: 82e9 2f3d f854 c93d 2344 44be b39d eabd
00000010: 7c03 acbd bf52 353d 9506 463d 7e8a 4a3e
00000020: 66ad 7d3c 76f2 bb3d 1cec 89bd 061e a7bd
00000030: 3200 36be 5cac 18be f20d d0bd cbc2 723d
00000040: 51b5 033e f815 203e a7a2 02be 03f9 07be
00000050: 5a71 dbbb 3757 063e 8b44 cdbd 02c3 9f3d
00000060: 8cae 5cbb 944e 123d 8171 303e e286 26be
00000070: 0377 c2bd 6c97 a6bc fa34 09bd 284d 303e
00000080: 69e6 1fbe a0a0 d73c 83dc 03be 792b 74be
00000090: 7956 bebd bea4 4d3e e0e2 033e d4ed 0c3e
000000a0: c83c cf3c 40ef d3bd 7af1 193e 0792 21be
000000b0: a38d 1cbe 1dd3 08be 6e9a ce3d 2179 a33d
000000c0: 1b96 c1bd bbb4 42bd c948 453d d609 803e
000000d0: c094 1f3d 9450 84bd 4c9f 813d a07a 0cbe
000000e0: 77ac 283d 36ea 3dbe ef8b 37be bb73 0abe
000000f0: b86f fc3d fcec c23d 490e 02be 9b47 0fbc
00000100: 5f05 b63d 581c 8ebc 9ba3 1abc 1435 dc3c
00000110: f0de d23d 6c5d 853e e547 b3bd c021 2ebd
00000120: 3e38 673c 4fab 143e 8edb 293e 6a53 123e
00000130: 19c6 0c3b b93c 5abe 0a7e 9e3d a67d bfbd
00000140: 7274 4ebe 9310 603e 96ae 203e 0377 64be
00000150: 2171 023d 400d efbc faa8 8cbd 9542 9ebd
00000160: 9486 ba3d 781c f7bd ebc3 173e 4dc8 0b3e
00000170: 729e f73d 8fd6 c33d 0940 24be 5a05 19be
00000180: 1393 0d3e ef67 b43d 39f8 07be 4b9f 5bbd
00000190: 9bba 603e 9df1 fa3d b07a 90bd 541d 98bc
000001a0: 569c 49be 6989 103d 8634 b7bd d596 d8bd
000001b0: ef73 bbbc c65f 293c 60cc c7bd 95bd e93d
000001c0: 7b44 24be 5dd3 173e 4687 243e cf13 3dbe
000001d0: 8972 45bd 35b3 363b acd2 ae3b 95c5 8c3c
000001e0: af0a ae3d 6a6b 24bd 4f11 05be 79ca 0a3e
000001f0: 3991 4abe 1fef ecbd 2e94 59bd 7744 f4bd
00000200: 1099 bdbd 0adf 1dbe 1cf9 dbbd b7ed 1aba
00000210: 2c18 bbbd 9b88 26bd 4f76 fc3d d5da 48bd
00000220: d642 8cbc 25a6 c4bc 349c d43c 6c0a bd3d
00000230: 7fe1 223e 7730 ac3d 7091 1d3e 0614 3dbd
00000240: e44e 45be cc8c c1bd 02fd 1c3e 4456 ccbb
00000250: 4de3 e7bd ef6e 17be a7cb 63be 0b77 3fbe
00000260: f283 65bd 1123 a53d 97f6 b83d 0585 3bbe
00000270: 2e8a d93d 096a 43be 2c1b 9ebd 3ac2 11be
00000280: 396d d1bd a4cc e4bd 494c 73be 6582 2abe
00000290: 2a4b f9bc 1613 92bd 4ac6 b7bd 74f5 8e3d
000002a0: 5153 84be 1a6f f8bc 3d5b 323e 584f e1bd
000002b0: 8ff3 3b3e c68c 9d3d 490d 4fbe 2268 073e
000002c0: 4b10 5abc 48fa fbbd a846 1a3e a1ef 07be
000002d0: 805a 66ba f08d ccbc c3f2 1d3e 7771 2d3d
000002e0: 3a9d e53d e74c ba3d d58d 65bd 9fbb fcbc
000002f0: 1690 f4bd 1bb9 a63d 9705 043e 5b01 cd3d
00000300: fa47 25be 4511 f4bc e709 47be 4ddf d6bd
00000310: 6ddd 13be 3eca 66ba 7a86 fabd 33eb 17bc
00000320: 8ded 2cbc b809 f43d 63a0 25be d691 31be
00000330: 0d30 a8bd 5664 033e 7f3f e6bd eefc 2d3e
00000340: fa28 a43d 77c4 d23c 78dd 4f3c f1f8 20bd
00000350: 5d03 363c 29af 1d3c 0512 923c 1c5b bf3c
00000360: 64ce efbd 6eb7 acbd 254f 143e 0e6c 05be
00000370: 4da2 8e3b 3d67 273e 71e8 a63d 1ae4 8d3c
00000380: afc5 8cbe 1682 093e c295 e2bd 0dcb 5abd
00000390: 8d7f 05bd 0fff 8ebb 4f6d 98bc 8a8d 513e
000003a0: 7787 8c3d 2770 c83d 6b02 d53d 1458 13be
000003b0: bf45 4e3d f5b1 1cbe 95c1 d6bd 75af e9ba
000003c0: 90e6 913d 72af 1e3e 7d71 1ebe c748 763b
000003d0: 238c 623d 0bbe 61be c2d3 1e3e bb2b 15be
000003e0: 7a8b 1a3c bf2d 4aba aee4 90bd c1c0 0b3d
000003f0: c50d 153e 5f2f 10be 5377 46be d47d 93bd

conv1.bias f4 [64]
-8.894749e-05 1.673046e-05 -0.00069289067 0.00012148066 0.00017321293 5.8031226e-05 0.0001144764 -0.00027988313
-0.00014586627 -0.00016901217 -1.6783624e-05 -0.00015794985 9.593303e-05 1.3026644e-05 0.00022543079 0.0003191743
-0.00032118475 -3.2313597e-05 -0.00018012116 -0.0003495078 -0.00021565573 6.060766e-06 1.1447841e-05 -1.4226554e-05
3.2209933e-05 -7.1040195e-05 0.00039273294 -9.371823e-05 0.00021253471 -0.0007990746 -2.5261577e-05 6.799565e-05
-2.4725083e-05 0.00016146939 -1.48464815e-05 -1.5739128e-05 -5.85453e-05 -9.700455e-05 0.00047041939 -8.5494175e-06
-0.00041718694 3.9824543e-05 -1.1607363e-05 1.2335275e-07 0.00026819573 8.409657e-05 -2.7509013e-05 -1.6629108e-05
4.7872676e-05 -5.4280797e-05 -0.00018091562 -6.12108e-05 6.917285e-05 -0.00039028173 -0.00056844205 -0.00012985844
-0.00020185472 -4.0370876e-05 2.9256407e-05 5.3331e-06 6.7474204e-05 -0.00014267223 -0.000110368295 0.00023648913
00000000: 5289 bab8 6458 8c37 1ba3 35ba 6fc3 fe38
00000010: 7ea0 3539 8e66 7338 0d13 f038 47bd 92b9
00000020: aef3 18b9 dc38 31b9 8fca 8cb7 579f 25b9
00000030: a72f c938 038d 5a37 9e61 6c39 d956 a739
00000040: b064 a8b9 7688 07b8 e8de 3cb9 253e b7b9
00000050: a521 62b9 955d cb36 1a10 4037 96ae 6eb7
00000060: 2719 0738 6afb 94b8 b9e7 cd39 978a c4b8
00000070: dadb 5e39 fd78 51ba d3e8 d3b7 e398 8e38
00000080: b668 cfb7 1c50 2939 2715 79b7 8507 84b7
00000090: 8a8e 75b8 ec6e cbb8 9fa2 f639 786f 0fb7
000000a0: e2b9 dab9 4709 2738 3fbd 42b7 f272 0434
000000b0: 9f9c 8c39 015d b038 28c3 e6b7 bd7e 8bb7
000000c0: e5ca 4838 90ab 63b8 2bb4 3db9 4c5e 80b8
000000d0: e410 9138 ba9e ccb9 8003 15ba 9c2a 08b9
000000e0: f7a8 53b9 e653 29b8 a86b f537 fbf2 b236
000000f0: f080 8d38 499a 15b9 8775 e7b8 11fa 7739

bn1.weight f4 [64]
1.0009836 0.9964387 0.9851563 0.9855058 0.9946198 0.97474974 0.9692399 0.8942904
1.0014411 0.9898985 0.96665853 0.9734784 0.9930762 0.95381516 0.93534106 0.959427
1.0419604 0.9931002 0.9910416 1.0410384 1.111044 0.9631611 0.98466414 0.95046836
0.9855914 0.9853784 0.94931847 0.9304946 1.0271534 1.0651828 0.98936576 0.97375757
0.9651009 1.021748 0.91384906 0.9436091 0.9656521 0.9335092 0.99365485 0.97745085
1.0339968 1.0069339 1.018045 0.9912353 0.9843886 1.0060847 0.90984535 1.0052329
0.9673022 0.9831959 1.048529 1.0299863 0.9865743 1.0426812 1.0661751 0.9720992
0.9316551 1.0121497 0.9736825 0.9950435 1.0024911 0.9738853 1.0015881 1.0182298
00000000: 3b20 803f 9b16 7f3f 3433 7c3f 1c4a 7c3f
00000010: 679f 7e3f 3389 793f 1b20 783f 37f0 643f
00000020: 392f 803f fd69 7d3f ef76 773f e135 793f
00000030: 3e3a 7e3f 3b2d 743f 8372 6f3f 029d 753f
00000040: f55e 853f d13b 7e3f e7b4 7d3f bf40 853f
00000050: b136 8e3f ba91 763f f312 7c3f e551 733f
00000060: b84f 7c3f c241 7c3f 8906 733f e534 6e3f
00000070: c379 833f e957 883f 1347 7d3f 2d48 793f
00000080: da10 773f a3c8 823f 03f2 693f 5e90 713f
00000090: fa34 773f 75fa 6e3f 2a60 7e3f 383a 7a3f
000000a0: 025a 843f 36e3 803f 4c4f 823f 99c1 7d3f
000000b0: e400 7c3f 62c7 803f a0eb 683f 79ab 803f
000000c0: 1ea1 773f bab2 7b3f 3336 863f 97d6 833f
000000d0: 2290 7c3f 9476 853f 6d78 883f 7edb 783f
000000e0: f380 6e3f 1f8e 813f 4243 793f 2cbb 7e3f
000000f0: a151 803f 8c50 793f 0a34 803f 5b55 823f

bn1.bias f4 [64]
0.0054657296 -0.02460814 0.026767327 -0.0172544 0.010360144 0.02371426 0.0152649535 -0.035088208
-0.008294102 0.05731289 -0.12244324 0.03553653 0.061046135 0.22112854 -0.09526694 -0.14434114
0.016342727 0.052919902 -0.06848046 -0.002396146 -0.046456996 -0.12288854 0.14435084 0.05953338
0.13173686 -0.06497733 0.0911955 -0.11669916 -0.03331334 -0.043771412 0.13715845 -0.13315898
0.005861966 -0.08514765 -0.021507645 0.13585259 -0.048896093 0.04309714 0.04297498 -0.03774839
-0.013788657 -0.052016072 0.029013898 -0.020367805 0.055857293 -0.03193564 -0.20005018 0.09603491
-0.11126296 -0.051698297 -0.08322514 0.12372529 -0.15478377 0.053668913 0.028967982 -0.06622937
-0.03149567 0.11837201 -0.04042826 0.019211583 0.04991522 0.05439617 0.050207503 0.14247341
00000000: dd19 b33b 0397 c9bc 2747 db3c 1959 8dbc
00000010: 98bd 293c 6844 c23c db19 7a3c a7b8 0fbd
00000020: fce3 07bc ecc0 6a3d 85c3 fabd c18e 113d
00000030: 830b 7a3d 856f 623e 501b c3bd 2ace 13be
00000040: 2fe1 853c 8ac2 583d 7c3f 8cbd a908 1dbb
00000050: b149 3ebd fdac fbbd b5d0 133e 46d9 733d
00000060: 07e6 063e d612 85bd b5c4 ba3d f8ff eebd
00000070: 9273 08bd a749 33bd 4473 0c3e d45a 08be
00000080: bc15 c03b e461 aebd cd30 b0bc f11c 0b3e
00000090: 4547 48bd a086 303d 8806 303d 0e9e 1abd
000000a0: d2e9 61bc ce0e 55bd 8eae ed3c 62da a6bc
000000b0: 9eca 643d f2ce 02bd f4d9 4cbe f3ad c43d
000000c0: d6dd e3bd 98c1 53bd f171 aabd af63 fd3d
000000d0: a37f 1ebe efd3 5b3d 434e ed3c 44a3 87bd
000000e0: 9b01 01bd 066d f23d 1a98 25bd 9c61 9d3c
000000f0: e773 4c3d 85ce 5e3d 62a6 4d3d 8de4 113e

bn1.running_mean f4 [64]
-0.0071780463 0.18326236 0.10275528 -0.026871284 -0.0623381 -0.16081299 0.20067081 0.15208115
0.000809547 0.16139178 0.28606996 0.054934617 -0.13934375 -0.17788593 -0.17633194 -0.15451361
0.19431882 0.019180372 0.14989665 -0.042332675 0.008118869 -0.07502377 0.00421108 0.02733695
0.06709917 -0.1535277 -0.018145764 0.07425813 0.024340432 0.029480955 -0.015728775 -0.044871245
0.08211284 -0.0074967504 0.006291904 0.085999735 -0.057355866 0.0046045952 0.10400054 -0.15680791
-0.019518327 0.3487644 -0.025849868 0.14891866 -0.2338393 -0.020815393 0.20042966 -0.09456833
-0.028761566 0.24714059 -0.06791039 -0.18062979 -0.09135329 0.12413917 0.04996018 -0.058731753
0.14610599 -0.21072465 0.12963897 -0.014589558 -0.13991842 0.08247034 0.012733109 0.054644544
00000000: d135 ebbb 21a9 3b3e 5c71 d23d 2b21 dcbc
00000010: 3c56 7fbd 29ac 24be a67c 4d3e 29bb 1b3e
00000020: c837 543a e343 253e c377 923e 1f03 613d
00000030: 21b0 0ebe bb27 36be 5c90 34be d138 1ebe
00000040: 83fb 463e 2820 9d3c 827e 193e 0765 2dbd
00000050: 0105 053c 10a6 99bd 19fd 893b bdf1 df3c
00000060: 4a6b 893d 5e36 1dbe 6da6 94bc a514 983d
00000070: 9665 c73c 0b82 f13c a2d9 80bc e9ca 37bd
00000080: c72a a83d 4da7 f5bb 512c ce3b a120 b03d
00000090: fced 6abd 25e2 963b 3cfe d43d 4192 20be
000000a0: e6e4 9fbc 3f91 b23e 1ac3 d3bc 227e 183e
000000b0: 9273 6fbe 0b85 aabc 6f3d 4d3e 0aad c1bd
000000c0: 609d ebbc 6c12 7d3e 9a14 8bbd 04f7 38be
000000d0: 6f17 bbbd ad3c fe3d 0ca3 4c3d b590 70bd
000000e0: cf9c 153e 34c8 57be 14c0 043e 0b09 6fbc
000000f0: c646 0fbe 36e6 a83d 889e 503c f5d2 5f3d

bn1.running_var f4 [64]
0.09116752 0.22164905 0.105147496 0.15954958 0.82354856 1.2208437 0.46372545 0.29085067
0.043694194 0.35938385 1.19709 0.21137421 2.2447782 0.28026932 0.83067745 0.22530583
0.32575685 0.40474316 0.9731279 0.052434303 0.07407819 0.17795473 1.4553939 1.0017837
0.47068992 0.6186253 0.46973032 0.3541473 0.17370309 0.036970478 0.4769767 0.44214678
1.8737615 0.42255238 0.17026284 1.242527 0.14355654 1.0246826 0.12817037 1.6852585
0.08513533 0.8456837 0.37915844 0.653643 0.5092184 0.34716588 0.80213434 0.09622097
0.13692296 0.25039557 0.21054363 0.90329075 0.7125667 0.5564201 0.09969779 0.5934487
0.16116524 1.2887177 0.5512035 1.3468857 0.34019285 0.34849882 0.10988824 0.23614678
00000000: 09b6 ba3d f8f7 623e 9257 d73d f760 233e
00000010: 14d4 523f 9b44 9c3f 6c6d ed3e 61ea 943e
00000020: aff8 323d 2901 b83e 3f3a 993f 7b72 583e
00000030: 72aa 0f40 767f 8f3e 47a7 543f 92b6 663e
00000040: 9ac9 a63e 7f3a cf3e e91e 793f 5ac5 563d
00000050: 4eb6 973d c439 363e 594a ba3f 733a 803f
00000060: 45fe f03e 3a5e 1e3f 7e80 f03e cb52 b53e
00000070: 39df 313e 5b6e 173d 4a36 f43e 1061 e23e
00000080: 6bd7 ef3f c958 d83e 6259 2e3e 200b 9f3f
00000090: 7c00 133e cd28 833f 183f 033e 8db6 d73f
000000a0: 6f5b ae3d ba7e 583f 0e21 c23e 2655 273f
000000b0: 235c 023f babf b13e ad58 4d3f 800f c53d
000000c0: 8835 0c3e d933 803e c098 573e 103e 673f
000000d0: c56a 363f 8c71 0e3f 5b2e cc3d 41ec 173f
000000e0: 8008 253e b4f4 a43f ac1b 0d3f c066 ac3f
000000f0: c22d ae3e 706e b23e 160d e13d 76d0 713e

fire2.squeeze.weight f4 [16, 64, 1, 1]
0.08822681 0.018576086 0.06772276 0.023332842 0.0822916 0.015288941 -0.024228023 0.005197859
0.052222773 -0.06471983 -0.10779251 0.037971023 -0.15290098 0.07409397 -0.107422695 -0.012766419
-0.08517472 0.12335114 -0.13202472 0.10668877 0.105331704 0.015559416 -0.026868733 0.053826164
0.08440578 -0.0029369285 0.07961866 -0.06390774 -0.045508806 0.013930781 0.02971064 -0.048045963
-0.14242958 -0.0289902 0.0703669 0.09842863 -0.16052033 0.0936437 -0.14768463 -0.16841836
-0.11655114 -0.051075127 0.038122732 -0.13959971 0.12837835 0.13039556 -0.02862085 0.13322744
-0.087806 -0.11432361 -0.024039958 0.03731176 -0.050858382 -0.167651 0.08791205 0.04457059
0.06714947 -0.010028193 0.022358086 -0.053344462 0.07077216 -0.06743957 0.058838043 0.13577588
0.15813535 0.037241023 0.0069953725 0.12133596 -0.11044382 0.10419679 0.14457358 0.092831895
-0.037619993 -0.10273743 -0.02130574 0.04762245 0.046423674 -0.005103137 0.086793154 -0.034572624
-0.061401494 -0.0055890623 0.022297211 -0.08703706 -0.037641168 -0.1320903 -0.057676002 -0.07458114
0.12447303 -0.12540528 -0.09387096 -0.05889221 0.044091333 -0.097147934 0.067206636 -0.107702546
-0.058850598 -0.1306913 0.02890298 0.11644857 0.084078014 -0.041142683 -0.16974656 -0.031074438
-0.069223166 -0.070230156 0.09039219 0.06586977 -0.0072907223 0.07058062 -0.05354595 -0.009495092
-0.006103555 -0.053472713 -0.050505616 -0.028792685 -0.14175463 0.08919049 -0.0756988 -0.10435349
0.10926486 -0.0096171405 0.03290008 0.13831155 0.0010816371 -0.013163884 0.015246581 0.113595374
-0.050463896 -0.105490774 -0.052597325 0.04656515 -0.008052038 0.042503025 -0.01310182 0.0035013491
-0.022149522 -0.025404789 -0.12171713 -0.13163963 -0.03380455 0.028020356 0.030676957 -0.016387273
0.006855998 0.04104858 -0.13882636 -0.118224256 -0.11758794 -0.036794193 -0.11728039 -0.055140458
-0.029758334 0.015689528 0.010047341 0.07284715 0.09926179 -0.09932099 -0.001942652 -0.025056237
0.07054661 -0.08553973 -0.07921638 -0.11339766 0.07011272 -0.04463666 -0.09878258 0.046285205
0.0810661 -0.01282785 -0.096798 0.06741385 -0.07957659 -0.062967196 -0.109986216 -0.0878722
-0.1181922 -0.07752944 -0.15774122 -0.061659057 0.016939132 -0.11486075 -0.05051823 -0.06685016
0.02848777 0.09419324 -0.018882552 -0.0738783 -0.13031983 -0.08643652 0.010690139 0.018976009
0.1047112 0.06817727 0.11903854 -0.07927329 0.06347221 0.14951308 -0.12076363 -0.0136319585
0.14357339 0.012215158 -0.013129606 0.11190639 0.04174436 0.019327039 0.024686467 0.1393462
0.121616796 0.07315888 0.04376374 0.15654221 0.14770734 0.019983983 0.0062193484 0.056958687
-0.03647743 0.14514038 -0.031501126 0.10634821 -0.14638323 0.110484555 0.08916194 0.07922019
-0.01187414 0.10978015 -0.043278452 -0.028126929 -0.073028356 -0.00060422474 0.030459505 -0.02401544
0.050230835 0.056467604 0.15602969 -0.02838229 0.018321479 0.09288493 -0.014396447 0.12162006
-0.023839455 0.028147945 0.008556642 0.10158908 0.08479956 -0.09061389 0.16337484 0.03370142
0.043224253 -0.012389307 0.1302896 0.09514055 0.09075033 0.055873945 0.14524326 -0.0031823912
00000000: 42b0 b43d e02c 983c 3bb2 8a3d 8424 bf3c
00000010: 8088 a83d 777e 7a3c d979 c6bc cd52 aa3b
00000020: 8ce7 553d d58b 84bd 52c2 dcbd 8187 1b3d
00000030: 1392 1cbe 94be 973d 6e00 dcbd 3e2a 51bc
00000040: 1570 aebd 869f fc3d 7d31 07be a47f da3d
00000050: 26b8 d73d ecec 7e3c d11b dcbc d378 5c3d
00000060: f0dc ac3d 7c79 40bb 1c0f a33d 10e2 82bd
00000070: 7167 3abd ee3d 643c ba63 f33c d8cb 44bd
00000080: 0fd9 11be db7c edbc 851c 903d f394 c93d
00000090: 715f 24be 45c8 bf3d a43a 17be dd75 2cbe
000000a0: 5db2 eebd 2734 51bd 9526 1c3d 3af3 0ebe
000000b0: 9d75 033e 6a86 053e 4676 eabc c66c 083e
000000c0: a2d3 b3bd 7f22 eabd 72ef c4bc 37d4 183d
000000d0: e150 50bd b4ac 2bbe 3c0b b43d a78f 363d
000000e0: a985 893d 4a4d 24bc 4e28 b73c b97f 5abd
000000f0: fff0 903d c21d 8abd 2900 713d d508 0b3e
00000100: 3cee 213e 0b8a 183d 7039 e53b fd7e f83d
00000110: 5f30 e2bd 2065 d53d 190b 143e a61e be3d
00000120: 6c17 1abd 0068 d2bd 6089 aebc c20f 433d
00000130: c026 3e3d 3738 a7bb 9cc0 b13d 069c 0dbd
00000140: 2280 7bbd 7424 b7bb a4a8 b63c 7c40 b2bd
00000150: a02d 1abd ae42 07be ac3d 6cbd ffbd 98bd
00000160: b7eb fe3d 3e6a 00be 6b3f c0bd f538 71bd
00000170: 1d99 343d 7ff5 c6bd a2a3 893d 2793 dcbd
00000180: 530d 71bd f1d3 05be f1c5 ec3c 967c ee3d
00000190: 1831 ac3d 3b85 28bd 0bd2 2dbe d28f febc
000001a0: e0c4 8dbd d4d4 8fbd 8a1f b93d bbe6 863d
000001b0: 03e7 eebb 928c 903d 0053 5bbd 4d91 1bbc
000001c0: 5500 c8bb 3406 5bbd fade 4ebd a3de ebbc
000001d0: 2028 11be 81a9 b63d f907 9bbd 48b7 d5bd
000001e0: 41c6 df3d 3691 1dbc 3cc2 063d 8ba1 0d3e
000001f0: b8c5 8d3a 55ad 57bc cccc 793c b1a4 e83d
00000200: 3bb3 4ebd 8c0b d8bd 4b70 57bd 19bb 3e3d
00000210: b2ec 03bc a717 2e3d 04a9 56bc e476 653b
00000220: ea72 b5bc b41d d0bc d546 f9bd 8acc 06be
00000230: a476 0abd f28a e53c 3e4e fb3c 9a3e 86bc
00000240: 48a8 e03b 8e22 283d 7f28 0ebe 8f1f f2bd
00000250: f2d1 f0bd 82b5 16bd b330 f0bd f6da 61bd
00000260: c0c7 f3bc 5387 803c 9a9d 243c e330 953d
00000270: c449 cb3d ce68 cbbd 96a0 feba bd42 cdbc
00000280: be7a 903d 742f afbd 333c a2bd 083d e8bd
00000290: 4297 8f3d eed4 36bd 854e cabd 8e95 3d3d
000002a0: fc05 a63d e72b 52bc 083e c6bd 4610 8a3d
000002b0: 0df9 a2bd f2f4 80bd 7440 e1bd 57f6 b3bd
000002c0: c10e f2bd c1c7 9ebd ea86 21be 358e 7cbd
000002d0: efc3 8a3c 1d3c ebbd 34ec 4ebd bde8 88bd
000002e0: 2f5f e93c 63e8 c03d 95af 9abc 824d 97bd
000002f0: 9072 05be a105 b1bd b125 2f3c 9373 9b3c
00000300: d372 d63d 86a0 8b3d 7aca f33d 095a a2bd
00000310: b8fd 813d f519 193e ec52 f7bd 9458 5fbc
00000320: e704 133e 1622 483c 8f1d 57bc 2d2f e53d
00000330: 22fc 2a3d bd53 9e3c 463b ca3c c5b0 0e3e
00000340: 3a12 f93d 53d4 953d 9c41 333d 9a4c 203e
00000350: 9840 173e 73b5 a33c adcb cb3b 834d 693d
00000360: 5c69 15bd ae9f 143e 5307 01bd 17cd d93d
00000370: 7ce5 15be ba45 e23d 899a b63d 323e a23d
00000380: c18b 42bc 6ad4 e03d bf44 31bd 726a e6bc
00000390: e48f 95bd d664 1eba 3686 f93c 07bc c4bc
000003a0: d9be 4d3d 934a 673d 3fc6 1f3e fa81 e8bc
000003b0: ed16 963c 743a be3d 13df 6bbc f013 f93d
000003c0: f64a c3bc 8596 e63c 2831 0c3c f00d d03d
000003d0: 64ab ad3d c693 b9bd bc4b 273e 800a 0a3d
000003e0: ea0b 313d 85fc 4abc a36a 053e 0cd9 c23d
000003f0: 4fdb b93d 14dc 643d a6ba 143e aa8f 50bb

fire2.squeeze.bias f4 [16]
-0.11194645 0.036877863 -0.028612101 0.0029035357 0.08300841 0.11965916 -0.03939423 0.2361291
0.15122552 0.043845117 0.1130559 -0.0439515 -0.010500307 0.02480718 0.0040421835 -0.034485295
00000000: 2e44 e5bd 3e0d 173d ed63 eabc 3f49 3e3b
00000010: 5000 aa3d dd0f f53d d85b 21bd d4cb 713e
00000020: ddda 1a3e f096 333d da89 e73d 7d06 34bd
00000030: 7b09 2cbc 6d38 cb3c 4b74 843b 7440 0dbd

fire2.expand1x1.weight f4 [64, 16, 1, 1]
0.061863717 0.081946075 0.12598422 -0.09095669 -0.0074847955 0.0239681 -0.07866156 0.003072684
0.07516999 -0.15954244 -0.17048362 0.0035867698 -0.090855 -0.10295495 -0.17209962 0.11809487
-0.02595811 -0.12955493 -0.066362575 -0.0090139555 -0.18248944 0.018615583 -0.018259723 0.06194278
0.07753909 -0.031314675 0.10427312 0.17559186 -0.0013153825 0.093016036 -0.07406173 0.03223609
0.10772716 -0.103951775 0.13527136 -0.17467624 -0.09818798 -0.09415619 -0.13756369 -0.09619325
-0.18138427 -0.053193156 -0.028717842 -0.121470526 -0.014306582 -0.0143594 0.051560324 -0.11843116
0.030259995 0.03355747 0.070292585 -0.011524097 0.102761365 0.20708545 0.0057236725 0.2704283
0.13338567 -0.023308048 0.015752936 0.13905568 -0.049680814 0.09181528 -0.007098521 0.11344712
0.012415028 -0.10750679 0.18578467 0.0029112974 0.11439815 0.06156976 0.049691193 0.21049616
-0.013423931 -0.04968986 -0.035478406 -0.13949862 -0.0008380088 -0.08607986 -0.0037880437 -0.120416984
0.093436204 -0.30140048 0.090700254 0.0013333167 -0.2888953 0.13926542 -0.23902562 -0.0883589
0.11627085 -0.032984316 0.15748978 -0.1264653 -0.040951394 -0.15908143 -0.08307623 0.2262862
0.1580928 0.009075128 0.017826328 -0.22727749 0.17207007 -0.03468336 -0.09198937 -0.22519255
0.22118182 0.09110353 0.12347625 0.011378357 -0.16824764 0.06456205 -0.00956414 0.020409802
-0.10279103 -0.13033862 0.18778391 -0.018760804 -0.09993035 0.013467342 -0.14203991 -0.07415831
0.13279514 -0.045358043 0.22343858 0.14886081 -0.044535317 -0.1292675 -0.052046377 -0.13595143
0.13542172 -0.13894543 0.052776564 -0.3140993 0.042176414 0.17261723 0.14545399 0.00663448
0.104022615 -0.06118332 0.09746278 0.13536552 -0.21490413 -0.010911302 -0.056886937 -0.11402278
0.07964501 -0.09502805 -0.0030360678 -0.033575244 0.079685986 0.16600843 -0.07411206 -0.08779809
-0.1921508 -0.034388907 -0.06384173 -0.1272955 -0.022685679 0.1549041 0.03336939 -0.06815823
0.042954944 -0.14831163 0.102097094 -0.22088207 0.16370238 -0.10474391 -0.110438146 -0.25915697
-0.088658795 -0.12120196 -0.13636875 0.17877701 0.10193075 -0.2069982 -0.008588768 0.09553483
0.16646166 -0.16055992 0.14546241 -0.12743638 -0.12148099 0.10781667 -0.20182073 0.21862061
0.20240378 0.020302797 0.08771278 0.22583742 -0.0094706025 0.039532784 0.036138855 -0.09028788
0.09376454 -0.04819107 0.14932305 -0.089003146 0.026549006 -0.019839797 0.10654486 0.12650159
0.06732468 -0.058043405 -0.0060363533 0.08843353 -0.15798996 -0.15131135 0.0942196 -0.07258355
-0.09943257 -0.06909107 0.019089414 -0.16145058 -0.06628712 -0.06557466 0.093509965 0.019680614
-0.05776355 -0.1331437 -0.0059025893 0.060866576 -0.016934192 0.116700806 0.110773474 0.061540347
0.041504536 0.06977654 -0.0938632 -0.089753225 0.041035984 -0.117097236 -0.03323489 -0.090195544
-0.19671409 -0.15243512 0.06677178 -0.120534115 -0.012775857 0.017285926 -0.011180895 0.06464088
0.16849527 0.044533722 -0.15756917 -0.18458118 0.07319717 -0.1410621 -0.043213576 -0.14510964
0.006877797 -0.13004985 0.020665288 0.17652705 -0.08500497 0.03479009 0.027382422 -0.11003361
00000000: cf64 7d3d 58d3 a73d 0202 013e 8047 babd
00000010: 0443 f5bb c058 c43c 5019 a1bd 155f 493b
00000020: b9f2 993d 185f 23be 4293 2ebe 0310 6b3b
00000030: 3012 babd 0bda d2bd e23a 30be b9db f13d
00000040: 1aa6 d4bc 0caa 04be 1ae9 87bd 45af 13bc
00000050: 83de 3abe b57f 983c 6a95 95bc b6b7 7d3d
00000060: d0cc 9e3d d143 00bd 258d d53d 5ace 333e
00000070: ea68 acba 317f be3d adad 97bd fe09 043d
00000080: 0fa0 dc3d abe4 d4bd 9384 0a3e 54de 32be
00000090: c816 c9bd f6d4 c0bd 7fdd 0cbe f700 c5bd
000000a0: ccbc 39be 11e1 59bd ae41 ebbc 8ac5 f8bd
000000b0: 2766 6abc b043 6bbc eb30 533d 098c f2bd
000000c0: cfe3 f73c 8f73 093d 8ff5 8f3d 91cf 3cbc
000000d0: 8d74 d23d 350e 543e a58d bb3b 9475 8a3e
000000e0: 4196 083e 85f0 bebc 4d0c 813c 9d64 0e3e
000000f0: 1c7e 4bbd a609 bc3d b69a e8bb f756 e83d
00000100: 6768 4b3c 852c dcbd 563e 3e3e 77cb 3e3b
00000110: 9449 ea3d 9330 7c3d fe88 4b3d 4e8c 573e
00000120: 0cf0 5bbc 9887 4bbd ce51 11bd bad8 0ebe
00000130: d2ad 5bba a34a b0bd d440 78bb 2e9d f6bd
00000140: 7b5b bf3d 2a51 9abe 0ec1 b93d afc2 ae3a
00000150: 16ea 93be 989b 0e3e 22c3 74be 83f5 b4bd
00000160: 691f ee3d 901a 07bd 0045 213e 1f80 01be
00000170: a6bc 27bd 3ee6 22be df23 aabd 92b7 673e
00000180: 14e3 213e d8af 143c 8508 923c 6ebb 68be
00000190: 2333 303e 2410 0ebd ec64 bcbd e098 66be
000001a0: 7d7d 623e 7d94 ba3d 1ee1 fc3d 4a6c 3a3c
000001b0: 1c49 2cbe 1c39 843d e9b2 1cbc 7532 a73c
000001c0: 1b84 d2bd 7d77 05be 6d4a 403e 42b0 99bc
000001d0: 49a8 ccbd 20a6 5c3c e972 11be 50e0 97bd
000001e0: 73fb 073e 5bc9 39bd 15cd 643e f86e 183e
000001f0: aa6a 36bd b35e 04be 952e 55bd da36 0bbe
00000200: feab 0a3e b647 0ebe 3d2c 583d a0d1 a0be
00000210: 2dc1 2c3d 92c2 303e e4f1 143e 0d66 d93b
00000220: cf09 d53d 5c9b 7abd 919a c73d 429d 0a3e
00000230: d40f 5cbe 51c5 32bc 4702 69bd c684 e9bd
00000240: ec1c a33d 119e c2bd c4f8 46bb 3286 09bd
00000250: 6832 a33d 1dfe 293e 10c8 97bd 7ccf b3bd
00000260: 2ec3 44be 62db 0cbd 74bf 82bd c059 02be
00000270: 51d7 b9bc 2e9f 1e3e 57ae 083d 8b96 8bbd
00000280: 86f1 2f3d 01df 17be 4818 d13d e92e 62be
00000290: 99a1 273e fa83 d6bd 652d e2bd 39b0 84be
000002a0: be92 b5bd bc38 f8bd 40a4 0bbe 5211 373e
000002b0: 12c1 d03d 56f7 53be e7b7 0cbc c4a7 c33d
000002c0: ed74 2a3e d269 24be 19f4 143e af7e 02be
000002d0: 06cb f8bd fcce dc3d 18aa 4ebe 15de 5f3e
000002e0: f042 4f3e 0d52 a63c c2a2 b33d ed41 673e
000002f0: 962a 1bbc 21ed 213d 5606 143d dae8 b8bd
00000300: a007 c03d 0064 45bd 24e8 183e 4847 b6bd
00000310: 4d7d d93c 1287 a2bc 3134 da3d a289 013e
00000320: 86e1 893d ecbe 6dbd 9acc c5bb a31c b53d
00000330: 1fc8 21be 5df1 1abe 35f6 c03d afa6 94bd
00000340: 4ea3 cbbd 9e7f 8dbd 6761 9c3c 4d53 25be
00000350: 8bc1 87bd 024c 86bd 2782 bf3d 3d39 a13c
00000360: 7999 6cbd d256 08be 826a c1bb 3b4f 793d
00000370: 93b9 8abc d500 ef3d 34dd e23d bb11 7c3d
00000380: a900 2a3d 01e7 8e3d 593b c0bd 8ad0 b7bd
00000390: 5915 283d add0 efbd 4f21 08bd 71b8 b8bd
000003a0: 6b6f 49be f417 1cbe a5bf 883d 97da f6bd
000003b0: d451 51bc 379b 8d3c 1330 37bc 7062 843d
000003c0: 068a 2c3e fe68 363d d059 21be d902 3dbe
000003d0: 66e8 953d 9572 10be b800 31bd 9f97 14be
000003e0: 255f e13b ca2b 05be 404a a93c 82c3 343e
000003f0: 1617 aebd 0e80 0e3d 1a51 e03c 4d59 e1bd

fire2.expand1x1.bias f4 [64]
-0.07844754 -0.13599807 0.03294562 0.10168108 0.22984274 -0.2401223 -0.23639455 -0.049844354
-0.06937322 0.08554906 -0.03727682 0.036092483 0.22136125 -0.15420327 -0.012278394 -0.0022277015
-0.04037194 -0.0012736176 -0.2460601 0.17372198 0.05035808 -0.24103065 -0.048956383 -0.14086007
-0.22523749 -0.016081322 -0.05329061 -0.07150029 -0.43528166 -0.1149711 -0.055528574 -0.21517918
0.21182586 0.14810501 -0.21766129 -0.09679101 0.08276697 -0.1898639 -0.049702547 -0.012072399
-0.1898744 0.063024506 -0.25268108 -0.1316977 0.013855289 -0.11912709 -0.014154679 0.010650159
-0.218117 -0.17246538 0.11521859 -0.15744133 -0.2847267 -0.087384425 -0.06204285 -0.12790386
0.08527871 -0.13819668 -0.098437265 0.12533243 -0.23731613 -0.25897518 -0.26249212 0.21618843
00000000: 1ba9 a0bd 1443 0bbe fdf1 063d 2c3e d03d
00000010: e55b 6b3e 9fe2 75be 6a11 72be 9829 4cbd
00000020: 8c13 8ebd 5834 af3d 94af 18bd b6d5 133d
00000030: 86ac 623e 76e7 1dbe 512b 49bc a1fe 11bb
00000040: 0c5d 25bd 84ef a6ba 2ef7 7bbe 2de4 313e
00000050: 4644 4e3d bdd0 76be 7d86 48bd 9f3d 10be
00000060: a8a4 66be fabc 83bc 4147 5abd be6e 92bd
00000070: 3ddd debe f875 ebbd ee71 63bd ee57 5cbe
00000080: e1e8 583e d7a8 173e 9ae2 5ebe 5d3a c6bd
00000090: bb81 a93d af6b 42be e694 4bbd 50cb 45bc
000000a0: 6f6e 42be fe12 813d 6a5f 81be c3db 06be
000000b0: 4b01 633c e7f8 f3bd 07e9 67bc 017e 2e3c
000000c0: 105a 5fbe c49a 30be b9f7 eb3d 4d38 21be
000000d0: b3c7 91be 9bf6 b2bd a520 7ebd 3bf9 02be
000000e0: 9ba6 ae3d 6e83 0dbe 7a99 c9bd 2557 003e
000000f0: 0003 73be 6598 84be 5e65 86be 8060 5d3e

fire2.expand3x3.weight f4 [64, 16, 3, 3]
-0.14079027 -0.19274959 0.07174255 -0.09242524 0.049546216 -0.07003724 -0.022763453 -0.029483268
-0.043825936 0.124536745 0.07019977 -0.06562649 0.02712485 0.02487661 -0.048426837 -0.050790064
0.0015968897 0.10424701 -0.057994753 -0.09731888 -0.048578765 0.012803752 -0.018792765 0.022010956
0.07110638 -0.012811936 -0.04107116 -0.05079922 -0.082869574 -0.0014953285 0.0010349284 -0.014777345
-0.064991236 0.027564252 0.051013496 -0.08083331 0.00021898195 0.048087783 -0.057352256 -0.09542825
-0.08785388 0.04307007 -0.00516976 -0.012543182 -0.017691338 0.015521553 -0.05952314 -0.074665405
-0.11179979 -0.06079947 -0.0012636632 -0.048943277 -0.06544853 -0.062257927 0.012169712 -0.17337073
0.07707399 -0.06809315 -0.03840007 -0.059309587 -0.0089004515 0.11757313 -0.06977829 -0.084231324
-0.04228195 -0.03513109 -0.19788627 -0.10316189 -0.137251 -0.1262725 0.018756429 -0.13671233
0.024833506 0.034335822 0.08348201 0.08417621 0.035686295 -0.02854753 -0.011758303 0.06761862
0.036258172 0.019574564 -0.017631283 0.06342564 -0.055013556 0.01949839 0.043507718 -0.036413893
-0.04729767 0.07321995 -0.027524035 0.04223931 0.059013356 0.01657146 -0.016758068 0.053361252
0.07941616 0.023544107 0.018117331 -0.074440904 -0.035689548 0.020926066 0.013523352 -0.020072445
0.03581544 0.02202112 -0.07923885 0.015031885 -0.027310524 -0.119054064 -0.03785524 -0.01913553
-0.07877565 -0.13329539 0.14402837 -0.015379856 0.00016157891 0.10136934 -0.12615906 -0.09294147
-0.079031475 -0.061425228 -0.1283682 0.038709417 -0.00600347 0.002981536 -0.055435818 -0.08246592
-0.009050538 -0.22370255 -0.010059659 -0.07186109 -0.019412436 -0.032486364 0.05806988 -0.09236521
-0.04648835 -0.02636481 -0.10104827 0.010955967 0.0089505315 0.04399055 0.03344736 0.075131975
-0.047904737 0.086051136 -0.058363948 -0.103055045 0.034785096 -0.108160906 -0.11586672 0.04779984
0.02066295 0.06567751 0.029710269 -0.08476421 0.07985427 0.06665059 -0.025400894 0.13113423
-0.024588954 -0.017715897 -0.06016132 0.043132715 0.031626273 0.08363819 0.058795296 0.012844716
-0.05959099 -0.059074696 0.017996598 -0.15769638 -0.05575807 -0.04133052 -0.029171713 -0.13832854
-0.00062732515 -0.094524965 -0.13164671 -0.03189716 -0.008552832 -0.0017681211 0.019553151 -0.06998369
0.07214066 0.051254142 0.02837706 0.06978755 -0.13456294 -0.053570393 -0.12676343 -0.076530315
-0.06972335 0.015968243 0.005650119 0.039596077 -0.080052614 0.031397622 -0.010145714 -0.00065936963
0.054967683 -0.006968994 -0.059429318 0.072425246 -0.057352405 0.012389892 -0.1286118 0.035048217
-0.10219231 -0.11077233 -0.032013346 -0.081094876 -0.08014578 -0.06265899 -0.008931325 -0.01888484
-0.0821959 0.05993483 -0.023277879 -0.012778897 0.0355969 -0.015727358 0.026873086 -0.01629697
-0.052797668 -0.06266449 0.011827684 -0.051868554 -0.025102638 0.016297517 0.0013212801 0.021181218
0.02694466 0.007541632 -0.011966007 0.06330115 -0.029160703 -0.0009576956 0.05376172 0.012595921
-0.080607966 0.05870865 -0.01668426 -0.020125484 0.0610346 0.006163799 -0.04503177 -0.035301905
-0.001415297 -0.0153828915 -0.00845534 -0.048867892 0.08506782 0.0022451966 0.009972005 0.0054084263
00000000: 532b 10be 2660 45be c2ed 923d 7249 bdbd
00000010: f9f0 4a3d af6f 8fbd 6c7a babc e586 f1bc
00000020: d382 33bd 1f0d ff3d e6c4 8f3d 2e67 86bd
00000030: ef34 de3c 08ca cb3c 385b 46bd 3e09 50bd
00000040: ba4e d13a 757f d53d e88b 6dbd 1f4f c7bd
00000050: 87fa 46bd d4c6 513c 49f3 99bc 5250 b43c
00000060: 39a0 913d 28e9 51bc 3c3a 28bd d812 50bd
00000070: 86b7 a9bd e6fe c3ba 6fa6 873a ad1c 72bc
00000080: 201a 85bd 6dce e13c 87f3 503d ef8b a5bd
00000090: 859e 6539 b2f7 443d 33ea 6abd e36f c3bd
000000a0: bcec b3bd 3e6a 303d 1767 a9bb eb81 4dbc
000000b0: 6ded 90bc 1d4e 7e3c 89ce 73bd 2dea 98bd
000000c0: 4af7 e4bd dd08 79bd 80a1 a5ba bf78 48bd
000000d0: e109 86bd 2b02 7fbd 7963 473c 1988 31be
000000e0: f8d8 9d3d 6c74 8bbd 6449 1dbd 9cee 72bd
000000f0: 33d3 11bc 2eca f03d ece7 8ebd 7981 acbd
00000100: d72f 2dbd 9ee5 0fbd b3a2 4abe 8a46 d3bd
00000110: 878b 0cbe 944d 01be 15a7 993c 51fe 0bbe
00000120: a36f cb3c b8a3 0c3d 9ef8 aa3d 9464 ac3d
00000130: cb2b 123d 82dc e9bc e6a5 40bc a27b 8a3d
00000140: 7383 143d d65a a03c 7b6f 90bc 4de5 813d
00000150: e555 61bd 16bb 9f3c 2635 323d bc26 15bd
00000160: 34bb 41bd 57f4 953d 167a e1bc 2003 2d3d
00000170: fdb7 713d dfc0 873c 3748 89bc 5491 5a3d
00000180: f1a4 a23d 92df c03c cc6a 943c 7974 98bd
00000190: 342f 12bd 246d ab3c 0d91 5d3c f86e a4bc
000001a0: 36b3 123d a365 b43c fa47 a2bd 4c48 763c
000001b0: 52ba dfbc 9ed2 f3bd 190e 1bbd 1dc2 9cbc
000001c0: 2155 a1bd 967e 08be 2c7c 133e cbfb 7bbc
000001d0: 826d 2939 bb9a cf3d d72f 01be 1958 bebd
000001e0: 41db a1bd 0599 7bbd f472 03be c48d 1e3d
000001f0: c2b8 c4bb e065 433b ab10 63bd e4e3 a8bd
00000200: b548 14bc 4812 65be 45d1 24bc e82b 93bd
00000210: d406 9fbc 6c10 05bd afda 6d3d f929 bdbd
00000220: 916a 3ebd 04fb d7bc 65f2 cebd a880 333c
00000230: 40a5 123c 6f2f 343d 1900 093d cbde 993d
00000240: c237 44bd 943b b03d 090f 6fbd 860e d3bd
00000250: d17a 0e3d 7783 ddbd 884b edbd c4c9 433d
00000260: 5945 a93c ee81 863d f362 f33c dc98 adbd
00000270: a38a a33d 1b80 883d 8915 d0bc 0d48 063e
00000280: c66e c9bc ee20 91bc b76b 76bd eeab 303d
00000290: 8d8a 013d 804a ab3d 56d3 703d a572 523c
000002a0: af15 74bd 4ff8 71bd 9a6d 933c 297b 21be
000002b0: 9362 64bd 314a 29bd 84f9 eebc ffa5 0dbe
000002c0: 1473 24ba 4e96 c1bd 65ce 06be 99a6 02bd
000002d0: 2d21 0cbc 4dc0 e7ba ee2d a03c 9c53 8fbd
000002e0: 7bbe 933d ddef 513d 0277 e83c c6ec 8e3d
000002f0: deca 09be a16c 5bbd 46ce 01be edbb 9cbd
00000300: 1ecb 8ebd d5cf 823c a224 b93b 7f2f 223d
00000310: a0f2 a3bd cb9a 003d 353a 26bc 8cd9 2cba
00000320: cb25 613d 295c e4bb 286c 73bd b053 943d
00000330: 5bea 6abd f9fe 4a3c d0b2 03be b88e 0f3d
00000340: 344a d1bd 9adc e2bd 6d20 03bd 1215 a6bd
00000350: 7923 a4bd 5b53 80bd b154 12bc 61b4 9abc
00000360: 5356 a8bd 397e 753d 40b1 bebc 945e 51bc
00000370: 0ece 113d a9d6 80bc f224 dc3c 3981 85bc
00000380: 5e42 58bd 3d56 80bd e7c8 413c 1f74 54bd
00000390: 0ca4 cdbc 5f82 853c ce2e ad3a 3c84 ad3c
000003a0: 0cbb dc3c cb1f f73b 120d 44bc 09a4 813d
000003b0: 6de2 eebc dd0d 7bba 4035 5c3d 1f5f 4e3c
000003c0: ca15 a5bd 7b78 703d 6ead 88bc 33de a4bc
000003d0: 6bff 793d b2f9 c93b 3c73 38bd bb98 10bd
000003e0: 7d81 b9ba 8608 7cbc 4488 0abc b329 48bd
000003f0: 0a38 ae3d 2624 133b 9f61 233c 2b39 b13b

fire2.expand3x3.bias f4 [64]
-0.21706557 -0.08483971 0.036441218 -0.009372836 -0.10354834 -0.08990756 0.061008193 0.006278789
-0.14082737 -0.065462165 -0.07724903 -0.003947236 -0.046348516 -0.050980452 -0.07333666 -0.04708915
0.042149633 -0.13125856 -0.18011662 -0.267328 -0.05316943 -0.11959573 -0.13422441 0.09370911
0.013542153 -0.06796968 -0.13337733 -0.06062586 -0.16841839 0.04959308 0.011304338 -0.20695677
0.09549956 -0.0102025755 -0.0912543 -0.012148149 -0.27075723 -0.009030493 -0.013098265 -0.04045551
-0.07874773 0.0097791925 0.05889637 0.090959154 -0.063150086 0.0031949729 -0.005783576 0.011091719
-0.050861195 -0.09562685 0.010701096 -0.06878971 0.011327081 8.357628e-05 -0.09934897 -0.113768175
-0.08537965 0.015822718 -0.06874868 -0.06627818 -0.02415457 0.036679648 -0.056681752 -0.0852105
00000000: 7046 5ebe 71c0 adbd 6343 153d 8690 19bc
00000010: 2711 d4bd 7421 b8bd bae3 793d 4dbe cd3b
00000020: 0d35 10be 0711 86bd bd34 9ebd d157 81bb
00000030: f1d7 3dbd e1d0 50bd 8831 96bd 8de0 40bd
00000040: 18a5 2c3d a568 06be 7e70 38be 37df 88be
00000050: 30c8 59bd 9bee f4bd 2072 09be 90ea bf3d
00000060: e8df 5d3c b033 8bbd 1194 08be d252 78bd
00000070: df75 2cbe 1d22 4b3d d535 393c 7aec 53be
00000080: 4695 c33d b428 27bc 89e3 babd 0809 47bc
00000090: b1a0 8abe a2f4 13bc 1b9a 56bc adb4 25bd
000000a0: 7d46 a1bd e838 203c 523d 713d cb48 ba3d
000000b0: d554 81bd c062 513b 2784 bdbb 0bba 353c
000000c0: d453 50bd 03d8 c3bd a653 2f3c 9fe1 8cbd
000000d0: 3995 393c ac45 af38 7977 cbbd 4aff e8bd
000000e0: 87db aebd a59e 813c 1ccc 8cbd dbbc 87bd
000000f0: cedf c5bc 663d 163d 202b 68bd d882 aebd
