Task4/checkpoints/SIMILARITY_TRAINED.pt (torch, 57854 bytes, 12 tensors)

conv1.weight f4 [64, 3, 3, 3]
000000 9a d7 2c 3d a4 fd ab 3d 5d 4b 7a be 34 95 eb bd
       0.0421978 0.083979875 -0.24442811 -0.115030676
000010 b6 47 c0 bd d1 5c 0e bc c9 aa 37 3d c1 b7 4e 3e
       -0.09388678 -0.008689121 0.044840608 0.20187284
000020 13 21 73 bc 85 d8 d7 3d d8 1d 5d bd d3 57 d4 bd
       -0.0148394285 0.10539345 -0.05398354 -0.10368314
000030 75 9e 2b be 15 8f 06 be b8 18 05 be 1e b5 8e 3d
       -0.16759665 -0.13140519 -0.1299771 0.06968139
000040 e8 b6 2a 3e a4 cd 26 3e ee fb 10 be 69 f1 1c be
       0.16671336 0.16289383 -0.14158604 -0.15326466
000050 7f 70 4c bd 29 91 fd 3d 51 98 d6 bd 3a 51 26 3d
       -0.049911972 0.12381203 -0.10478271 0.040604807
000060 de bf dc bb e7 82 58 3d 63 48 31 3e e6 48 3a be
       -0.0067367395 0.052859213 0.1731277 -0.18191871
000070 50 e8 8d bd 66 fa 14 3d c5 24 d7 bc c2 e9 3f 3e
       -0.06929076 0.03637161 -0.02626265 0.18741515
000080 11 b9 ed bd ff 7c 9b 3d 3c 75 b4 bd e3 e7 27 be
       -0.11607564 0.075922005 -0.08811423 -0.16397052
000090 eb bc 14 be 38 8b 4d 3e e5 62 1b 3e 26 de ec 3d
       -0.14525191 0.20072639 0.15174444 0.11565809
0000a0 07 95 59 3c c3 45 cd bd 7e 09 3d 3e 20 24 06 be
       0.01328016 -0.100230716 0.18460652 -0.13099718
0000b0 10 e2 e3 bd 36 0e 3c be c7 cd d2 3d 08 f9 d2 3d
       -0.111271024 -0.18364796 0.10293155 0.10301405
0000c0 38 95 f0 bd 8c 14 7a bd 7b c4 53 3d 25 e3 90 3e
       -0.11747211 -0.06105475 0.05170105 0.28298298
0000d0 b8 c1 74 3d 29 2f 1f bd 89 30 11 3d b1 9d 30 be
       0.059755057 -0.038863335 0.035446677 -0.17247654
0000e0 73 5f 02 3c 34 3c 45 be 1f 78 6c be b2 47 3e be
       0.007957327 -0.19261247 -0.23092698 -0.18582037
0000f0 a7 8c ba 3d ab db 88 3d ba 3c 41 be 6e 03 ff bc
       0.091088586 0.06682523 -0.18870822 -0.031129565
000100 d6 0f 86 3d 15 83 18 bd 1e 4a 93 ba 05 c6 ec ba
       0.06545989 -0.037234385 -0.0011237299 -0.0018064386
000110 79 bd a2 3d 69 f2 79 3e d8 fe a7 bd 59 39 83 bd
       0.07946295 0.24408878 -0.082029045 -0.064074226
000120 8b c2 9b bb 08 6d 01 3e 1a 60 1a 3e ab 0d 2a 3e
       -0.004753416 0.12639248 0.15075722 0.16606776
000130 c4 d7 bf bc a6 03 65 be aa 35 9b 3d da 27 a3 bd
       -0.023418315 -0.22364673 0.07578595 -0.079665855
000140 a3 14 4d be 4e da 73 3e 93 98 17 3e de 2b 66 be
       -0.20027404 0.23813745 0.14804296 -0.22477672
000150 d1 5c 0d 3d a5 86 27 bd 2d 94 c0 bd 80 66 38 bd
       0.034512345 -0.04089989 -0.09403262 -0.045019627
000160 fa 9f de 3d 0f 15 e3 bd 65 15 2d 3e 6d e6 04 3e
       0.10870357 -0.11088001 0.16902693 0.12978525
000170 e4 2f f5 3d a5 31 c6 3d 99 6a 33 be 15 85 33 be
       0.11972025 0.09677438 -0.17521133 -0.17531236
000180 51 e4 2e 3e 44 8e d9 3d be 43 fe bd 1e 09 63 bd
       0.17079283 0.10622838 -0.124152645 -0.055428617
000190 76 27 46 3e cb 69 d6 3d 8e eb a7 bd 66 b8 23 bd
       0.1935099 0.10469397 -0.08199225 -0.039970778
0001a0 5a ad 72 be fa d6 57 3d aa ef ac bd a2 17 e1 bd
       -0.23698941 0.052695252 -0.0844415 -0.10990836
0001b0 c7 88 44 bd 7c ca 81 3c 5a d7 df bd 4f 16 92 3d
       -0.047982004 0.015843622 -0.10929747 0.07133161
0001c0 06 f3 3b be 8a 2c 24 3e ce db fa 3d e6 d4 49 be
       -0.18354425 0.16032615 0.12248956 -0.1971012
0001d0 7b 39 c6 bc 47 2b bc bb 62 18 11 3d ca bd 24 3c
       -0.02419733 -0.0057424637 0.035423644 0.010055015
0001e0 2d 9a 41 3d 09 b4 8e bd 19 90 03 be f7 c0 c7 3d
       0.047266174 -0.06967933 -0.12847938 0.09753602
0001f0 69 8f 58 be 36 11 d0 bd ae 04 9e bd 38 15 0f be
       -0.21148457 -0.10159533 -0.07715736 -0.13972938
000200 b0 3b fa bd d6 2e 47 be 08 7e 4d be 30 89 86 bc
       -0.12218416 -0.1945146 -0.20067608 -0.016422838
000210 17 53 f6 bd 5f 4b af bd 09 8f 09 3e 83 f5 8d bd
       -0.12027567 -0.08559298 0.1343347 -0.06931593
000220 ba 2f 10 bd 6b 21 97 bd cc 9d db bb 79 05 9e 3d
       -0.035201766 -0.07379421 -0.0067021605 0.077158876
000230 73 2e 0d 3e 1c 38 45 3d 46 94 fb 3d b6 90 86 bd
       0.1378725 0.048149213 0.1228414 -0.0657057
000240 10 6f 53 be 84 53 d2 bd ec 00 db 3d bc eb 50 bd
       -0.20647836 -0.102698356 0.10693535 -0.051006064
000250 30 32 09 be ed 9f 2c be 15 39 8e be ab 77 73 be
       -0.13398051 -0.16857882 -0.27777925 -0.23776118
000260 be ac a0 bd 24 e3 96 3d ab d0 d1 3d 1c 17 56 be
       -0.07845448 0.073675424 0.102448784 -0.20907253
000270 82 58 b1 3d 9b f1 30 be 98 7a 6f bd 89 f3 1f be
       0.0865946 -0.17279665 -0.058466524 -0.15620245
000280 2b b6 9b bd e1 61 9f bd 0e da 59 be 48 10 13 be
       -0.07603105 -0.07782341 -0.21274588 -0.1436168
000290 9b 4a 06 bd 61 18 4b bd dc 93 99 bd 65 4c 78 3d
       -0.032785993 -0.049583796 -0.07498905 0.06061973
0002a0 35 0d 87 be 2c 04 df bc df 42 1f 3e 76 a0 7d bd
       -0.26377264 -0.027223669 0.15552853 -0.061920606
0002b0 78 e5 6d 3e df 21 c1 3d ed 49 23 be b9 a9 2e 3e
       0.23232067 0.094302885 -0.15946169 0.17056932
0002c0 9d c2 a5 bb 6b b3 f5 bd 57 8e 29 3e 6c 68 10 be
       -0.0050586 -0.11997112 0.16558205 -0.14102334
0002d0 54 af 9a 3d 36 f6 60 3d da 08 48 3e 74 7f e8 3d
       0.075529724 0.054922305 0.19534627 0.11352435
0002e0 70 83 30 3e 84 3a ed 3d 88 90 86 bc fd 6a 81 3b
       0.1723764 0.115834266 -0.01642634 0.0039495216
0002f0 0d f3 e5 bd bb 73 a0 3d 63 c7 f8 3d 49 f7 b6 3c
       -0.11227999 0.07834574 0.12147405 0.022334712
000300 d8 5d 29 be af 4a c2 bc fb 2c 9c be 71 71 09 be
       -0.16539705 -0.023717253 -0.30503067 -0.1342218
000310 11 8b 17 be f1 f7 94 bd e5 57 d8 bd 2f 70 84 3b
       -0.14799143 -0.072738536 -0.105636396 0.0040416936
000320 3d 76 4f bd 22 1d 0a 3e bd 30 06 be 10 a2 54 be
       -0.05064987 0.13487676 -0.1310453 -0.20764947
000330 e1 da bf bd 30 5d 17 3e 1c 7a 00 be b8 cb 2f 3e
       -0.0936792 0.14781642 -0.12546581 0.17167556
000340 c7 e8 9a 3d 3d 0f aa bc 2f b8 af 3c 07 d1 a8 bc
       0.0756393 -0.02075922 0.02145013 -0.020607485
000350 65 40 85 bc 0a e3 2e bc e5 f6 9d 3c 53 55 f6 3a
       -0.016266057 -0.0106742475 0.019282768 0.0018793739
000360 96 1a d4 bd 04 f5 99 bd d0 5a 17 3e 00 71 cd bd
       -0.10356633 -0.07517436 0.14780736 -0.10031319
000370 49 fe a2 3c 89 a4 2f 3e b9 c5 c2 3d a7 ab 77 3c
       0.019896643 0.17152609 0.09510369 0.015116609
000380 c7 78 a2 be c6 54 16 3e 08 c5 d6 bd 43 5a 50 bd
       -0.3173277 0.14680776 -0.104867995 -0.05086733
000390 f2 9c 75 3b 25 9c 79 3c 92 43 17 bc 8c 22 79 3e
       0.003747758 0.015234982 -0.009232419 0.24329585
0003a0 80 e3 b4 3d c4 d0 98 3d af d3 cd 3d a1 ea 19 be
       0.08832455 0.07461694 0.10050141 -0.1503091
0003b0 17 ab 77 3d 8e 16 09 be e8 e9 cb bd e8 52 94 3c
       0.0604659 -0.1338751 -0.099567235 0.018105939
0003c0 44 2d da 3d 37 63 36 3e 6a f3 1e be 89 0b d8 38
       0.10653165 0.17811285 -0.15522543 0.00010301831
0003d0 f4 4f 62 3d 93 b0 6c be 47 54 ff 3d dc a4 3b be
       0.05525203 -0.23114233 0.124672465 -0.18324608
0003e0 40 8a 32 bd e1 b1 2a ba 7c bc 31 bd ed 2a 4e 3d
       -0.043588877 -0.00065114914 -0.043392643 0.050333906
0003f0 a3 ab 10 3e 96 88 1b be d0 2e 53 be d5 40 cc bd
       0.14127974 -0.15188822 -0.20623326 -0.09973303

conv1.bias f4 [64]
000000 e2 78 be 3d 19 32 98 3c d2 9f 37 bc 08 41 64 3d
       0.093004 0.018578576 -0.011207538 0.05572608
000010 7f bf 93 3c 37 7c 39 ba d4 fc 86 bc 25 10 2b 3c
       0.018035648 -0.00070756994 -0.01647798 0.010440861
000020 33 0f 89 3b 40 69 8d 3c b6 c0 a7 bc dc b8 90 bc
       0.00418272 0.017262101 -0.020477634 -0.017666273
000030 2e 2f 7a bc 29 0f 61 3c 78 66 24 3b 9d 94 43 3b
       -0.015270038 0.013736525 0.002508549 0.002984322
000040 5d 82 3d bc e1 ed 24 bd fc 46 90 39 ff f9 52 bc
       -0.011566726 -0.04026592 0.00027518708 -0.0128769865
000050 ad 02 c5 3b 5e 70 cb 3b 43 ba 9e 3c 8f bc 2a 3b
       0.006012282 0.0062084636 0.019375926 0.002605233
000060 3f 2c 78 bd 2a 1f be bc 0a be b9 bc 92 10 25 bc
       -0.06058907 -0.02320822 -0.022673625 -0.010074751
000070 b7 d2 0c 3c db 42 95 3b b0 1f d6 3c ae 68 0a 3c
       0.00859516 0.004555089 0.026138157 0.008447809
000080 7f 76 47 3c fb 05 5e bc c5 c2 30 3d 60 f1 8c bb
       0.012174248 -0.013551231 0.043154497 -0.004301235
000090 ec 42 2e 3d dc e2 af bc 33 65 43 3d 39 e7 b9 3b
       0.04254429 -0.02147048 0.047703933 0.005673316
0000a0 9c 49 01 bd 08 ef 88 bc 8a 62 3f bb 82 df a8 bc
       -0.03156434 -0.016715541 -0.002920302 -0.02061439
0000b0 ed 15 b1 3c 7c 99 8d bc 19 98 2e 3c 48 a3 1b 3d
       0.0216169 -0.017285101 0.01065638 0.037997514
0000c0 a9 7f 26 3d 0b f8 cc bc 8b 71 28 3c d3 bb 83 bc
       0.04064909 -0.02502062 0.010280977 -0.016080773
0000d0 88 81 9f 3b 4a 99 f1 3b a8 8b 3f 3c 77 79 81 bc
       0.0048677363 0.00737301 0.0116910115 -0.01580499
0000e0 9a ae aa 3a 03 ca 92 bc 73 75 71 3c 90 b0 12 bd
       0.0013022006 -0.017918592 0.014737475 -0.035812914
0000f0 cb 41 a6 bc 1e 34 26 bb 4c b8 ca 3c c8 62 a0 bc
       -0.020295044 -0.0025360654 0.024746083 -0.019578353

bn1.weight f4 [64]
000000 18 68 84 3f c8 fd 84 3f ec 21 7a 3f 89 79 7e 3f
       1.0344267 1.0389948 0.9770801 0.994042
000010 b5 fe 7f 3f dd 07 7f 3f 55 f6 78 3f 4f a9 57 3f
       0.9999803 0.99621373 0.9725087 0.8424272
000020 f9 f5 7e 3f 5a ce 7d 3f dd 71 6d 3f b4 a1 7f 3f
       0.99594074 0.9914299 0.92751867 0.99856114
000030 b3 ae 80 3f 43 04 71 3f 17 86 6c 3f 2f ba 76 3f
       1.0053314 0.9414713 0.92392105 0.96377844
000040 1d ba 83 3f b5 11 7b 3f 0a 68 81 3f 71 d7 85 3f
       1.0291172 0.98073894 1.0109875 1.0456372
000050 5e 4b 90 3f b5 8c 79 3f b9 25 73 3f 7d d3 6e 3f
       1.1273 0.97480327 0.94979435 0.93291456
000060 be de 80 3f a9 07 7f 3f 50 12 6d 3f 98 fd 62 3f
       1.0067976 0.99621063 0.9260607 0.88668203
000070 7d 14 85 3f 16 90 88 3f 0d 97 80 3f b8 14 6d 3f
       1.0396878 1.0668972 1.0046097 0.9260974
000080 87 42 71 3f 8c 7b 81 3f 31 1d 67 3f d1 8d 74 3f
       0.9424214 1.0115829 0.9027892 0.95528895
000090 04 39 71 3f 2a ff 6e 3f 75 01 80 3f dc 49 73 3f
       0.94227624 0.933581 1.0000445 0.95034575
0000a0 36 0a 8a 3f 48 91 83 3f cc 9c 85 3f 94 b7 7d 3f
       1.0784366 1.0278711 1.0438476 0.99108243
0000b0 eb ae 7d 3f bf c8 81 3f fd 55 71 3f b3 66 7e 3f
       0.9909503 1.0139388 0.9427183 0.99375457
0000c0 48 42 81 3f 5d b4 76 3f 38 ee 87 3f 84 e6 84 3f
       1.0098352 0.9636896 1.0619574 1.0382848
0000d0 3e 69 7e 3f 76 28 88 3f ed 8f 87 3f 18 79 73 3f
       0.99379337 1.0637348 1.0590798 0.9510665
0000e0 2f 29 6e 3f 14 7e 81 3f 53 b6 7a 3f e2 d7 80 3f
       0.9303159 1.0116601 0.97934455 1.0065882
0000f0 52 3e 7c 3f 14 ed 74 3f ad 8c 81 3f aa 34 85 3f
       0.98532593 0.9567425 1.0121056 1.0406697

bn1.bias f4 [64]
000000 bf 9d 3f bc ce 76 13 3c 24 02 c7 3c a3 85 21 bd
       -0.011695324 0.009000493 0.024293013 -0.039434087
000010 e9 d3 c8 bc 34 e4 c5 3c 80 09 83 3c 47 0b ae bd
       -0.02451511 0.024156667 0.01599574 -0.08498245
000020 90 23 d0 ba e4 28 e3 3d a3 cd 19 be f3 41 b4 bc
       -0.0015879739 0.11091784 -0.1501985 -0.022004103
000030 ac 25 ae 3c 5a 02 73 3e 6c 70 ab bd 45 82 13 be
       0.021258198 0.23731366 -0.08371052 -0.14405163
000040 37 de 7b 3c d0 1c e1 3c ed fe 2c bd 5a e3 d4 bc
       0.015372804 0.02747956 -0.042235304 -0.025987316
000050 ee ec 7a bd b9 38 f1 bd 37 5d bd 3d ac 58 73 3d
       -0.06126111 -0.11778397 0.09246295 0.059410736
000060 d4 39 45 3e e8 e1 12 bd de 64 97 3d ec 0d 11 be
       0.19260341 -0.035859972 0.07392286 -0.14165467
000070 e9 76 49 bd b0 c4 ee bc aa 00 39 3e 94 e1 24 be
       -0.049185667 -0.029146522 0.1806666 -0.16101676
000080 ba c6 23 bd ad 00 c1 bd e7 d9 1e bd 4e 6a 16 3e
       -0.039984442 -0.09423957 -0.038782027 0.1468899
000090 44 08 94 bd 07 5a 1b 3d 4f 94 7e 3d f5 0e b6 bd
       -0.07228139 0.037927654 0.062153157 -0.088895716
0000a0 8b a2 47 bb ed 5f 80 bd b7 eb ab 3d 95 36 0a bc
       -0.0030461873 -0.062682964 0.083945684 -0.008435865
0000b0 e9 cd 76 3d ec cd 06 bd 75 f6 56 be e9 d5 ec 3d
       0.060254965 -0.032911226 -0.20992453 0.115642376
0000c0 f6 bc b7 bd 5d eb ef bd d9 06 01 be 2b 25 29 3e
       -0.08971588 -0.11714814 -0.12600268 0.16518085
0000d0 e0 9f 61 be 8c e1 3d 3d aa 87 3f 3c 00 15 c5 bd
       -0.22033644 0.046357676 0.01169006 -0.09623146
0000e0 49 7f 5b bd f3 36 dc 3d 13 00 4b bd c1 14 0f 3d
       -0.053588185 0.10752668 -0.049560618 0.0349319
0000f0 b0 4c 6a 3d 0a c4 b2 3d f6 99 8e 3d 62 a4 15 3e
       0.05720204 0.08728798 0.069629595 0.14613488

bn1.running_mean f4 [64]
000000 5f 52 d6 3d 14 77 0e 3e f2 7b 36 3e 09 5b a3 bb
       0.1046493 0.13912612 0.17820719 -0.0049852175
000010 bd 43 a0 bd 2f 49 c1 bd eb 50 74 3e 03 d0 61 3e
       -0.0782542 -0.09437787 0.23858993 0.22052006
000020 51 5f 88 3c bc 97 4c 3e 3e 06 9e 3e fe 06 5d 3d
       0.016647013 0.19979757 0.30864137 0.053961746
000030 ff 3a a0 bd 47 1d 5b be 80 ef 27 be b4 ff cd bd
       -0.078237526 -0.21397887 -0.16399956 -0.10058537
000040 fd 4b e2 3d 88 6a cb bd ae 22 da 3d 20 4d eb bc
       0.1104965 -0.099324286 0.10651146 -0.0287233
000050 95 a0 4c 3d ca 99 ce bc a9 62 b8 3d 89 85 10 3c
       0.04995783 -0.025219817 0.09003193 0.0088209
000060 8e 61 3e bd 45 a8 1e be fc 16 9f bd 27 cf 63 3c
       -0.046479754 -0.15493877 -0.07768056 0.013904369
000070 07 14 8b 3d 5c aa 04 3d 8e 54 e2 3d a2 9e 38 3b
       0.06790929 0.03238903 0.11051284 0.0028170724
000080 4d f9 36 3e 3c 9b 56 3a cc 72 e5 3d 31 54 8d 3d
       0.17868538 0.0008186584 0.112035364 0.06900824
000090 57 35 15 bd 2f 05 d8 3a e0 a5 41 3e 5e fe 14 be
       -0.036427822 0.0016481037 0.18910933 -0.14550158
0000a0 1d 2c 4f bd 00 4c a4 3e 54 b7 fc 3c ba e1 e7 3d
       -0.05057918 0.32089233 0.030849136 0.11322351
0000b0 ef 18 6b be 66 13 90 3c ee 21 85 3e bf 27 82 bc
       -0.2295873 0.017587375 0.2600245 -0.015888093
0000c0 dd 9b 83 3d 50 c1 93 3e 8c 83 e2 3c 5c f7 2a be
       0.06426213 0.28858423 0.027650617 -0.16695923
0000d0 5a 8d 13 3c 21 f1 38 3e d1 a7 8b 3d 85 74 ab bd
       0.009005869 0.18060733 0.06819118 -0.08371834
0000e0 1d 1a 36 3e c4 14 46 be f4 0e 06 3e 93 66 0e be
       0.17783399 -0.19343859 0.13091642 -0.13906316
0000f0 a7 09 43 be 21 4b ac 3d cd 0f 86 3d f3 11 bf 3d
       -0.19046651 0.08412767 0.065459825 0.093295954

bn1.running_var f4 [64]
000000 94 07 52 3e ae 28 f5 3d be 2b 03 3f f2 1e 3e 3e
       0.20510703 0.1197065 0.5123862 0.18566492
000010 b4 20 fe 3f ce 36 1b 40 12 d3 d2 3e cb 5f 4c 3f
       1.985373 2.42522 0.4117666 0.7983367
000020 fc b4 bc 3d 3d 36 16 3f 80 d0 21 3f 3a 55 6c 3f
       0.092142075 0.5867651 0.6320877 0.92317545
000030 f9 8b 1b 40 e1 c4 f9 3e 1c 9d b6 3f 60 a6 72 3e
       2.4304183 0.4878302 1.4266696 0.2369628
000040 00 e4 ea 3e a9 29 11 3f 1d 06 ad 3f ab 75 90 3d
       0.45877075 0.56704193 1.3517491 0.070536934
000050 6a cc 8a 3d 15 41 8b 3e 7c 53 d8 3f 5c 34 48 3f
       0.0677727 0.2719809 1.6900477 0.78204894
000060 96 34 66 3e ad 45 5d 3e 55 5f 83 3e c5 5d 3d 3f
       0.22480997 0.2160861 0.2565867 0.73971206
000070 e7 a3 4b 3e 17 9f 2a 3d 05 92 3f 3f c0 59 1f 3f
       0.19886743 0.041655626 0.74832183 0.6224632
000080 6f 69 31 40 36 49 97 3e 5a 1a c2 3d ac 82 4f 3f
       2.7720602 0.29548043 0.094776824 0.81058764
000090 b9 4b ab 3d 2d 16 ee 3e 12 c3 89 3e a1 a3 29 40
       0.08364052 0.46501294 0.2690664 2.650612
0000a0 ff 2c c3 3d 62 79 a5 3f d6 64 e1 3e bc c9 36 3f
       0.09530067 1.2927668 0.44022244 0.7140157
0000b0 db 0c ff 3e e3 05 20 3f df 17 87 3f 3c 7b d3 3d
       0.49814495 0.6250898 1.055416 0.103262395
0000c0 45 db 68 3d c8 dc 0a 3f 33 d1 0a 3e 50 e8 6d 3f
       0.056849737 0.54243135 0.13556366 0.92932606
0000d0 bc ab c4 3f 9b 1a 04 3f 9e 7e 7a 3e 38 72 6e 3f
       1.5364909 0.51603097 0.24462363 0.93143034
0000e0 0e ce fc 3e 0f 2e 72 3f 39 19 f5 3f 5f df b4 3f
       0.49375957 0.9460153 1.9148322 1.4130667
0000f0 51 b0 06 3f 6a 3a 8b 3e d1 29 41 3d d8 69 29 3e
       0.5261279 0.27193004 0.04715902 0.16544282

fire2.squeeze.weight f4 [16, 64, 1, 1]
000000 61 46 bb 3d 3b 00 07 bc 39 5a 96 3d 8b e4 37 3d
       0.09144283 -0.008239801 0.07341427 0.04489569
000010 ba eb b3 3d 4e 04 1f 3b 17 d0 22 bd c0 3a 1a bb
       0.08785196 0.002426404 -0.03974923 -0.0023533553
000020 c8 36 1f 3d c3 24 a8 bd 08 31 8d bd 60 51 70 3d
       0.038870603 -0.08210137 -0.068941176 0.058671355
000030 8c bd 24 be f6 37 a4 3d 2c 74 c6 bd f5 4c 71 bc
       -0.16087931 0.08018486 -0.09690127 -0.014727821
000040 22 ce cf bd 3f 75 fe 3d 78 90 1c be 6d 98 e1 3d
       -0.101467386 0.12424707 -0.15289485 0.11015401
000050 5d c5 dd 3d 6a 43 e8 3c e5 b7 48 bc 57 aa 8e 3d
       0.1082866 0.028352458 -0.012250875 0.069660835
000060 90 a0 b4 3d 4c 1f 3e 3d c1 26 b2 3d c2 cf 66 bd
       0.08819687 0.046416566 0.08698798 -0.056350477
000070 c4 3c a7 bd 18 83 bf 3b 00 cc db 3c d8 8a 5d bd
       -0.08165887 0.005844485 0.026830673 -0.05408749
000080 0d 84 0b be 3e 80 d5 bc 8c 53 8f 3d 39 62 df 3d
       -0.13624592 -0.026062127 0.06998357 0.10907406
000090 06 0d 09 be 43 eb c1 3d df f2 35 be 74 da 2b be
       -0.13383874 0.09468701 -0.17768429 -0.16782552
0000a0 33 37 41 be 63 04 21 bd b7 4e 36 bb 63 a8 29 be
       -0.18868713 -0.039310824 -0.0027817914 -0.1656814
0000b0 60 f2 1c 3e 89 11 ff 3d 52 01 e1 3c fd 7d 0a 3e
       0.15326834 0.124545164 0.02746645 0.13524623
0000c0 99 e3 2c be de b9 ed bd 5b 82 83 bc 8f 91 b3 3d
       -0.16883697 -0.11607717 -0.01605337 0.087679975
0000d0 80 84 54 bd 18 c5 49 be ea 28 c2 3d e9 f6 d1 3c
       -0.051884174 -0.19704092 0.0948046 0.025630431
0000e0 ab cb a9 3d fc 88 ea 3c 27 15 b2 3c d0 ef 76 bd
       0.082908 0.028629772 0.021738602 -0.060287297
0000f0 51 0d af 3d dd 5a b2 bd 99 fb a4 bb 5d 03 26 3e
       0.08547462 -0.08708737 -0.0050348756 0.1621222
000100 bd 87 3f 3e 41 43 a2 3c 67 02 0f 3c fb 5f 11 3e
       0.18704124 0.01980746 0.0087286 0.1419677
000110 ec 7f e7 bd 9c a5 ee 3d 7b 38 0d 3e eb 7d f6 3d
       -0.11303696 0.11652681 0.13791077 0.12035736
000120 0f 27 a8 bd cc 63 e0 bd 03 5c 1f bd 3e 94 44 3d
       -0.08210575 -0.10956535 -0.03890611 0.047992937
000130 53 cc 09 3d 46 04 75 bc 11 a6 c1 3d a8 20 78 bd
       0.033642124 -0.014954632 0.09455503 -0.06057802
000140 bc 44 07 bd f1 35 2d bd f3 b9 16 3d 09 35 92 bd
       -0.033024535 -0.04228777 0.03679843 -0.07139022
000150 33 7e 04 bd 71 ea 00 be ea 10 94 bd d9 24 c7 bd
       -0.032346915 -0.12589432 -0.072297886 -0.09723825
000160 ae b7 18 3e 41 b2 72 be 07 a8 e8 bd 3b 2d 90 bd
       0.14913818 -0.23700811 -0.11360174 -0.07039877
000170 94 9a 15 3d 03 64 d8 bd 21 b5 b8 3d cb dc c7 bd
       0.03652437 -0.10565951 0.090189226 -0.0975891
000180 fd e6 74 bd cc b4 0e be e1 e8 d1 3c f3 3d 0e 3e
       -0.0597906 -0.13936156 0.02562374 0.13890819
000190 38 ee 8b 3d 05 54 87 bd 3f 5f 16 be ac 26 1e bd
       0.06832546 -0.06607822 -0.14684771 -0.0386111
0001a0 ef 22 13 bd c9 e7 94 bd 52 eb de 3d f6 4b b6 3d
       -0.035921987 -0.07270772 0.108847275 0.08901207
0001b0 82 b4 1f bd fe fb b1 3d 8c 98 83 bd ba b6 94 bb
       -0.038990505 0.08690642 -0.064255804 -0.0045383843
0001c0 93 b1 45 bc 42 1b 4e bd 09 11 a7 bd 8f b4 1e bd
       -0.012066263 -0.050318964 -0.08157546 -0.038746413
0001d0 25 1e 10 be fa f0 d0 3d 50 f8 b0 bd 46 03 a7 bd
       -0.14073999 0.10202213 -0.08641112 -0.08154921
0001e0 b5 43 1e 3e a7 7f 73 3b c9 37 34 3d b5 5a 25 3e
       0.15455516 0.0037154944 0.043998513 0.16147883
0001f0 19 7f 3f 3c 5a e7 fc bc ba 2d 07 ba c7 69 07 3e
       0.011688017 -0.030872036 -0.0005156655 0.13223945
000200 f0 04 b6 bd b7 af ed bd 96 64 81 bd 5f 28 2c 3c
       -0.088876605 -0.116057806 -0.06318013 0.010507672
000210 b2 ec 03 bc 51 4d ba 3c 3c a3 98 bc e4 76 65 3b
       -0.008052038 0.022741945 -0.018632524 0.0035013491
000220 6e 16 06 bd 2b 6e 13 bd d5 46 f9 bd 8a cc 06 be
       -0.032736234 -0.035993736 -0.12171713 -0.13163963
000230 bf cb 85 bd 86 79 89 3b 78 35 90 3b 38 ae f2 bc
       -0.06533002 0.004195395 0.004400905 -0.02962409
000240 48 a8 e0 3b a5 87 f9 3c 7f 28 0e be 37 30 fd bd
       0.006855998 0.030460188 -0.13882636 -0.12362712
000250 c0 0a fc bd 8a 12 8a bd e0 27 1a be c9 87 86 bd
       -0.12306738 -0.06741817 -0.15054274 -0.06568868
000260 93 87 10 bd 82 8a 90 bc fa 0d e3 3b e7 95 3c 3d
       -0.035285544 -0.01764417 0.0069291564 0.046041396
000270 5e 3f a0 3d ce 68 cb bd bd 6c a4 bb 77 31 67 bd
       0.07824586 -0.09932099 -0.0050178454 -0.056443658
000280 82 88 25 3d 37 5b cb bd 9c 31 be bd 05 8b f3 bd
       0.040413387 -0.09929507 -0.09286806 -0.1189175
000290 30 55 33 3d 38 0d 62 bd f3 ac ea bd c4 cf 5b 3c
       0.043782413 -0.055188388 -0.11458769 0.013416234
0002a0 5d d3 78 3d e7 2b 52 bc 30 8a be bd 1d bd 23 3d
       0.060748447 -0.01282785 -0.09303701 0.039975274
0002b0 7c 55 c7 bd 35 44 8c bd f3 5a 00 be 47 ab dc bd
       -0.09733102 -0.06848947 -0.12534694 -0.10774856
0002c0 95 d5 0b be c1 c7 9e bd 15 8a 23 be d7 61 be bd
       -0.13655694 -0.07752944 -0.15970643 -0.09296005
0002d0 ef c3 8a 3c d2 f1 10 be 34 ec 4e bd 95 03 a3 bd
       0.016939132 -0.14154747 -0.05051823 -0.079596676
0002e0 82 9a 68 3c 6d 98 78 3d 95 af 9a bc 6f 62 d0 bd
       0.014196994 0.06069224 -0.018882552 -0.10175025
0002f0 16 bc 12 be 3b e1 c4 bd 84 26 a6 bc e7 4f 5c 3c
       -0.14329562 -0.09613272 -0.020282038 0.013446785
000300 e2 58 1b 3e c3 45 c1 3d 6e 5b f9 3d 63 11 9f bd
       0.15170625 0.09437134 0.12175642 -0.07766988
000310 6d 03 b6 3d 22 2e 26 3e 57 a0 18 be 1a 8b 91 bc
       0.08887372 0.16228536 -0.14904915 -0.017766524
000320 b7 13 03 3e e9 6f 31 3d 3d d7 e2 bc c3 e9 0e 3e
       0.1280049 0.043319616 -0.027690524 0.1395636
000330 6f f9 05 3d 6a 02 c7 3c 39 ad f1 3c 0e 01 11 3e
       0.03270858 0.024293143 0.029501544 0.14160559
000340 83 9f f3 3d ac 73 9c 3d 83 a8 a6 3d 0c 82 47 3e
       0.11895659 0.0763925 0.0813761 0.19483203
000350 79 8e 36 3e 3e fb 8c 3c b1 72 19 3c 67 06 9c 3d
       0.17827787 0.017209645 0.0093657235 0.07618409
000360 77 b4 1f bd d4 31 19 3e 56 8f b6 ba 79 7c a4 3d
       -0.038990464 0.14960414 -0.0013928215 0.08031554
000370 60 e8 20 be 38 0e 04 3e 50 9c d4 3d 7e c2 68 3d
       -0.15713644 0.12896049 0.10381377 0.056826107
000380 f7 3d 20 bd 6c d1 b5 3d 5a 23 8f bd df 70 90 bc
       -0.039121594 0.08877835 -0.06989165 -0.017631946
000390 6d ea 89 bd 98 12 42 3c 36 dc a0 3c 06 6e 04 bd
       -0.06734166 0.011845253 0.019636255 -0.03233149
0003a0 71 e6 a6 3d 09 e4 2f 3d e8 49 3d 3e 05 3b 11 bd
       0.08149422 0.04294208 0.18485224 -0.035456676
0003b0 ce f6 59 3c c1 91 ea 3d c5 4a 4a bd c3 cf 02 3e
       0.013303472 0.114535816 -0.049387712 0.12774567
0003c0 a0 b6 1a bd f6 ed 92 bc d2 93 f8 3b cc 2f af 3d
       -0.03777182 -0.017935734 0.007585981 0.085540384
0003d0 8c b2 da 3d 29 84 cd bd 27 d2 25 3e 8f 2a 50 3d
       0.10678586 -0.10034973 0.16193448 0.050821837
0003e0 08 f1 39 3d 02 94 1e bd 11 f2 1e 3e af 68 cd 3d
       0.04539588 -0.03871537 0.15522029 0.100297324
0003f0 de cf c6 3d 36 8d ad 3d f9 51 2b 3e 14 9e 8d bc
       0.09707616 0.084741995 0.16730489 -0.017287292

fire2.squeeze.bias f4 [16]
000000 b7 2a e3 bd a9 30 91 3d ea dc 6b bd 8e 84 24 3c
       -0.110921316 0.07089359 -0.057583727 0.010041369
000010 71 67 ad 3d ac 2f 29 3e 08 06 4e bd 9c 7b 74 3e
       0.084669955 0.16522092 -0.05029872 0.23875278
000020 28 9d 35 3e ee 1c 9a 3d 21 24 0a 3e 8c d7 3b bd
       0.17735732 0.07525049 0.13490345 -0.04585986
000030 b0 a4 79 3c f9 65 ea 3c af a6 23 3b dd 8c e5 3b
       0.0152370185 0.028613077 0.0024971177 0.0070053176

fire2.expand1x1.weight f4 [64, 16, 1, 1]
000000 cf b6 dc 3d 02 25 ce 3d 02 02 01 3e 25 00 ac bd
       0.107770555 0.100656524 0.12598422 -0.08398465
000010 18 f1 1e 3e 0d d6 0c 3e 66 7b df bd 90 75 14 bd
       0.15521657 0.13753529 -0.10912208 -0.03624493
000020 98 de ae 3d fe 4d 93 be 8c d8 57 be 03 10 6b 3b
       0.0853855 -0.2877044 -0.210787 0.0035867698
000030 19 ae 09 be 4a eb 4d be 44 59 d4 bd 5b f1 bb 3d
       -0.13445319 -0.20109287 -0.103685886 0.09176894
000040 5f e2 05 bd 78 0b 17 be 1a e9 87 bd 15 2d 68 bc
       -0.032686587 -0.14750469 -0.066362575 -0.014170905
000050 51 3c 1c be b5 7f 98 3c 79 5a df bc 25 28 34 3d
       -0.15257384 0.018615583 -0.02726482 0.043983597
000060 d0 cc 9e 3d d1 43 00 bd 86 0a d1 3d 5a ce 33 3e
       0.07753909 -0.031314675 0.10207085 0.17559186
000070 ee 9a 37 bc a0 b7 99 3d ad ad 97 bd fe 09 04 3d
       -0.011206372 0.07505727 -0.07406173 0.03223609
000080 9b 27 d3 3d c5 a3 f5 bd 93 84 0a 3e 75 b9 49 be
       0.103102885 -0.11994127 0.13527136 -0.19699652
000090 85 7e f1 bd a9 ed ea bd 33 4e 13 be 45 2a 01 be
       -0.1179171 -0.11471111 -0.143853 -0.12613781
0000a0 cc bc 39 be 9d ae ad bd ae 41 eb bc 8a c5 f8 bd
       -0.18138427 -0.084805705 -0.028717842 -0.121470526
0000b0 f5 27 a9 bc 85 bd ef bc 51 df fb 3c ff af 2b be
       -0.020648936 -0.029265175 0.030746134 -0.16766356
0000c0 5c a3 1d bd ca cf 80 3c 8f f5 8f 3d ec 2a 00 bd
       -0.03848587 0.015724082 0.070292585 -0.031290933
0000d0 5b 83 c4 3d 8a c0 4d 3e 86 19 dd 3b e1 46 7c 3e
       0.095953666 0.20092979 0.0067474274 0.24636413
0000e0 c1 b4 02 3e 64 a7 82 bd 4e 5c 8f bb 9d 64 0e 3e
       0.12764265 -0.063795835 -0.0043750172 0.13905568
0000f0 5c f3 8c bd fa cb 8a 3d 90 7a 42 bd f5 42 b2 3d
       -0.068823546 0.06777187 -0.047480166 0.08704177
000100 7c 12 56 3d e1 73 41 be 56 3e 3e 3e f3 95 a2 bc
       0.05226372 -0.1889186 0.18578467 -0.019846892
000110 cd 80 0a 3e 81 99 91 3d 88 84 5e 3c db 5b 2c 3e
       0.13525696 0.07109357 0.013581403 0.16831915
000120 3e b8 3f 3d 51 62 12 bd 20 22 4f 3b ba d8 0e be
       0.046806566 -0.035738293 0.0031606033 -0.13949862
000130 10 ee 68 bd 1f dc d0 bd e1 37 e8 3c b0 e4 dc bd
       -0.05686766 -0.10198235 0.028346958 -0.10785806
000140 76 1c b5 3d 6f 4d a5 be 0e c1 b9 3d 63 4f 50 bc
       0.08843319 -0.3228564 0.090700254 -0.01271424
000150 5d 3d 8c be 57 05 f8 3d 93 dd 87 be 11 e0 3f bd
       -0.27390566 0.121103935 -0.26536235 -0.046844546
000160 80 a6 bd 3d 45 e4 7b bd 0f 86 1f 3e 1f 80 01 be
       0.09260273 -0.06149699 0.15578483 -0.1264653
000170 89 6b ea bd b6 32 4f be 79 17 07 be 8f 44 05 3e
       -0.11446292 -0.20234188 -0.13192548 0.13014434
000180 b4 4c 02 3e e2 f1 7a 3c 85 08 92 3c 7f 31 82 be
       0.12724572 0.015316458 0.017826328 -0.25428388
000190 9f 05 27 3e 4c 33 96 bd 0f 5c c8 bd e8 69 99 be
       0.16310738 -0.07334003 -0.09783184 -0.29963613
0001a0 28 bb 60 3e fd 7b c2 3d d3 b4 e7 3d 4a 6c 3a 3c
       0.21946394 0.09496305 0.11313786 0.011378357
0001b0 b9 c4 42 be c1 c3 1c 3d 7d b6 39 3c ad f2 b6 3d
       -0.19020356 0.038272623 0.0113350125 0.089330055
0001c0 2a 05 10 be 7d 77 05 be 6d 4a 40 3e 3a d6 28 bd
       -0.1406447 -0.13033862 0.18778391 -0.041219927
0001d0 45 38 00 be cf f1 6a bc 51 0e 27 be 50 e0 97 bd
       -0.12521465 -0.014339878 -0.16314055 -0.07415831
0001e0 51 d3 fa 3d 5b c9 39 bd e0 ee 4a 3e f8 6e 18 3e
       0.12247337 -0.045358043 0.19817686 0.14886081
0001f0 87 31 07 bd b3 5e 04 be 40 a2 9b bd 64 1b e7 bd
       -0.033006217 -0.1292675 -0.07599306 -0.11284521
000200 b8 2d 0f 3e 76 e4 30 be 3d 2c 58 3d c5 58 a6 be
       0.13982284 -0.17274651 0.052776564 -0.324896
000210 74 2f 18 3d 4b fe 21 3e bc 4f 24 3e 09 43 11 bc
       0.03715463 0.15819661 0.16046041 -0.00886608
000220 4a 65 04 3e 14 8b 8f 3b 38 80 b4 3d 42 9d 0a 3e
       0.12929264 0.004380593 0.08813518 0.13536552
000230 d5 8d 7b be c8 d7 43 bc 84 57 91 bc 6a 31 08 be
       -0.24565823 -0.011953302 -0.017741926 -0.133001
000240 90 0b 41 3d 29 e0 ee bd c4 f8 46 bb 8a 46 a3 bd
       0.047130167 -0.11663849 -0.0030360678 -0.07972439
000250 9e 6b 88 3d 3c 23 17 3e 7a 07 ff bd f6 93 d0 bc
       0.06661151 0.14759535 -0.12452598 -0.025461178
000260 30 dd 13 be eb 03 3f bd bc 5d 98 bd c0 59 02 be
       -0.14439845 -0.046634596 -0.074397534 -0.1272955
000270 dd 6d 9a bc 91 69 17 3e 52 b4 cd 3b 7a 39 17 be
       -0.018851215 0.14786364 0.0062775994 -0.1476802
000280 6f 20 5a 3d ab c7 85 bd 48 18 d1 3d c1 b2 7a be
       0.053253587 -0.06532224 0.102097094 -0.24482252
000290 5f 5a 2d 3e 69 31 db bd 4b 31 00 be fd 1d 6f be
       0.16929005 -0.107027836 -0.12518804 -0.23351283
0002a0 b2 6e ea bd e3 04 c7 bd 75 72 e7 bd 52 11 37 3e
       -0.11446895 -0.09717729 -0.11301128 0.17877701
0002b0 a3 20 f3 3d fc 2d 5b be bf 7c 94 bc 6f 02 8b 3d
       0.11871459 -0.2140426 -0.01812589 0.067875735
0002c0 5d f5 20 3e 72 46 36 be 19 f4 14 3e 35 bc 26 be
       0.15718599 -0.1780031 0.14546241 -0.16282733
0002d0 b3 59 23 be c6 2c 3c 3c 8f 70 74 be c3 48 29 3e
       -0.15952186 0.011485284 -0.23871063 0.16531663
0002e0 66 43 7c 3d c3 31 ca bc 73 82 c4 3d ed 41 67 3e
       0.061587714 -0.024681931 0.09595194 0.22583742
0002f0 01 28 9a bd 68 00 db 3c 8c bd 29 bd 5a 7a da bd
       -0.075271614 0.026733592 -0.04144053 -0.10667868
000300 f8 ac 95 3d 1d ae f9 bd 24 e8 18 3e 2f 55 dd bd
       0.07308382 -0.121914126 0.14932305 -0.10807263
000310 9f d3 9c 3d 54 fd e5 3b 7c 23 96 3d fc fd d9 3d
       0.07657551 0.0070187245 0.07330987 0.10644147
000320 2c 73 b2 3d a8 2f 97 bc ef d5 89 3b a3 1c b5 3d
       0.087133735 -0.018455341 0.004206411 0.08843353
000330 a5 08 47 be 83 37 25 be 3e 86 b3 3d a3 d2 f9 bd
       -0.19436891 -0.16134457 0.08765839 -0.12198379
000340 4e a3 cb bd 12 18 72 bd 67 61 9c 3c cf 82 3f be
       -0.09943257 -0.059104986 0.019089414 -0.18702243
000350 17 52 26 bd 02 4c 86 bd 84 b7 82 3d de 0e 55 bb
       -0.04060563 -0.06557466 0.06382659 -0.0032510082
000360 79 99 6c bd 59 44 39 be 82 6a c1 bb 3b 4f 79 3d
       -0.05776355 -0.18092479 -0.0059025893 0.060866576
000370 fa 86 fb bc 58 b6 07 3e 6b ca c3 3d bb 11 7c 3d
       -0.03070401 0.13253152 0.095600925 0.061540347
000380 2d fd 81 3d 9f dc af 3d 59 3b c0 bd 98 0e d9 bd
       0.063471176 0.08587002 -0.0938632 -0.10598487
000390 39 22 a9 3d 95 1c 82 3b 47 6a 0b bd ef bb b8 bc
       0.082584806 0.0039706924 -0.0340369 -0.022550551
0003a0 2d 30 77 be 39 f2 25 be a6 72 9c 3d 97 da f6 bd
       -0.24139471 -0.16205682 0.07639055 -0.120534115
0003b0 98 e1 b2 3c e3 de e3 39 bd 73 18 bd 96 9e 81 3d
       0.021836087 0.00043462878 -0.03721975 0.06329076
0003c0 86 28 2a 3e 16 af ac 3d d0 59 21 be 1e 16 41 be
       0.16617021 0.084318325 -0.15756917 -0.18856093
0003d0 63 ce f2 3d 82 d3 38 be ce a5 03 bc 89 a9 19 be
       0.118557714 -0.18049434 -0.008035136 -0.15006079
0003e0 98 51 99 bb 1d bc 52 be 12 c2 31 3d 82 c3 34 3e
       -0.004678916 -0.20579572 0.04339797 0.17652705
0003f0 d8 83 52 bd ee 57 c0 ba 04 3a 47 bc a5 50 a2 bd
       -0.051395267 -0.0014674643 -0.012159828 -0.07925538

fire2.expand1x1.bias f4 [64]
000000 46 b3 0d bd c7 21 12 be 4d 6e c3 bb d7 ce 76 3d
       -0.034594797 -0.14270698 -0.0059640766 0.06025585
000010 ef 5c 1e 3e e1 7f 86 be 8a 56 7f be 93 86 a4 bd
       0.15465139 -0.2626944 -0.24935356 -0.080334805
000020 ce 39 86 bd bb 92 f0 3c 5d e5 d8 bc 06 81 fd 3c
       -0.06553994 0.029366842 -0.026476556 0.030945312
000030 49 d6 2f 3e d1 78 2a be 82 b5 91 3b 03 fd 8b 3c
       0.17171587 -0.1664765 0.0044466862 0.017088419
000040 ea 60 5d bd 21 34 1a bd 69 49 72 be c8 94 ce 3d
       -0.054047503 -0.03764737 -0.23660816 0.100869715
000050 76 35 fe 3c 6e 5f 94 be 2f fc 25 bd 9f 3d 10 be
       0.031031352 -0.28979057 -0.040523704 -0.14086007
000060 46 4f 89 be 69 ec 95 3a 32 da e8 bc 4a be 43 bd
       -0.26818293 0.0011438254 -0.028424356 -0.047788896
000070 9a a6 eb be 4c f4 16 be df 6b 92 bd b1 93 73 be
       -0.46025544 -0.1474163 -0.07149481 -0.23786809
000080 59 ce 1d 3e 54 87 df 3d 55 9b 7c be ff 43 ac bd
       0.15410747 0.10914484 -0.2466863 -0.08411407
000090 fe a2 68 3d f0 b4 44 be 92 3b e8 bc 50 cb 45 bc
       0.056796066 -0.19209647 -0.028348718 -0.012072399
0000a0 d0 77 40 be 2f f7 c2 3c 0b ed 67 be f8 46 3e be
       -0.18795705 0.023799507 -0.22649018 -0.1858176
0000b0 0d 96 1e 3b 2b 47 e2 bd e5 d7 21 bd 3d 3c 88 3d
       0.0024198324 -0.110487305 -0.039512534 0.066521145
0000c0 4d 24 57 be 4a 8b 38 be d9 87 00 3e 0a c3 1a be
       -0.21009941 -0.18021885 0.12551822 -0.15113464
0000d0 d2 b0 a8 be 9d a6 fe bd 66 d2 83 bd a7 4b 27 be
       -0.32947403 -0.12434123 -0.06436615 -0.16337453
0000e0 8d fc 90 3d e8 74 43 be bf 90 d6 bd 1d 2f 8d 3d
       0.0707942 -0.19087565 -0.10476827 0.06893752
0000f0 7b 49 74 be 9b 5e 7b be e1 f0 90 be 91 63 3b 3e
       -0.23856156 -0.24547808 -0.28308776 0.182997

fire2.expand3x3.weight f4 [64, 16, 3, 3]
000000 b5 8e 19 bd 7a 5f 35 be b3 cc 0f 3d 42 e2 84 3c
       -0.03748961 -0.17712203 0.035107326 0.01622117
000010 5f fb ed 3d de e1 c8 bd 4a 4f 95 bd 7e 21 08 3d
       0.11620211 -0.09808706 -0.07290514 0.033235066
000020 d4 96 b8 bd 4f 05 2c 3e 18 ff a1 3d 68 e8 9e bd
       -0.09013143 0.167989 0.079099834 -0.07759172
000030 0b fa 6b 3d 67 91 65 3c fd 47 a3 bd 25 39 51 b9
       0.057611506 0.014011717 -0.07972715 -0.00019953081
000040 fa 4f b6 bd 63 f9 93 3d e8 8b 6d bd 1f 4f c7 bd
       -0.08901973 0.07225301 -0.057994753 -0.09731888
000050 87 fa 46 bd d4 c6 51 3c 49 f3 99 bc 52 50 b4 3c
       -0.048578765 0.012803752 -0.018792765 0.022010956
000060 39 a0 91 3d 28 e9 51 bc 3c 3a 28 bd e0 91 99 bd
       0.07110638 -0.012811936 -0.04107116 -0.074985266
000070 42 85 c6 bd b7 eb ab bc ba 6a 37 3d a7 e6 10 3c
       -0.09693386 -0.020986421 0.044779517 0.008844054
000080 e8 b9 d4 bd 70 7a 8c 3d 2c 5d a0 3d 9a 02 0e be
       -0.10387021 0.068592906 0.07830271 -0.1386818
000090 5f 2e 96 3b 9e 28 37 3d a7 f8 89 bd 89 56 25 bd
       0.0045831646 0.04471647 -0.0673688 -0.04036573
0000a0 e0 12 8f bd 2e 2e 8e 3c 82 be bd bd 34 93 f9 3a
       -0.06986022 0.017356005 -0.09264852 0.0019041062
0000b0 95 62 d0 bc 98 1e 0d bd 0e 22 d5 bb 4d ce 62 bd
       -0.025437633 -0.034453005 -0.006504304 -0.055372525
0000c0 bb d9 6a be d3 2f 19 bd 41 c8 3a bc 3c 88 25 be
       -0.2293462 -0.037399124 -0.011400283 -0.1616525
0000d0 33 81 1d be 60 c5 a3 3b 01 bd 1f bc 36 d7 84 be
       -0.15381317 0.004997894 -0.009749652 -0.25945443
0000e0 a9 5f cc 39 f7 55 63 bd 86 eb 65 bd aa 6b 02 be
       0.00038981184 -0.055501904 -0.056132816 -0.12736383
0000f0 e5 81 30 3d bb 39 dd 3d 14 67 4f be ce c8 6b 3d
       0.043092627 0.10802027 -0.20254165 0.05756455
000100 44 ad b5 bc 8a 65 3b 3c 6c c8 42 be b0 f6 8a bd
       -0.022177346 0.011437783 -0.19021767 -0.06785333
000110 5d 9d b1 bd 2e 5d 32 be b7 25 9e bb 4d ac 9a bd
       -0.08672593 -0.17418358 -0.0048262733 -0.07552395
000120 1a 96 70 3d 4c 27 fa 3c 09 9d 5c bc 8b 06 97 3d
       0.058736898 0.030536316 -0.0134651745 0.07374295
000130 a1 c2 9c 3c 9b 39 d5 bd bf aa 78 3b 5f fd 89 3d
       0.019135775 -0.10411378 0.003794357 0.0673778
000140 d4 b1 b2 3c 91 0d 88 3d e7 7b 38 bd 23 f0 7c 3d
       0.02181331 0.066432126 -0.045040037 0.06175245
000150 3a ef 61 3c ad e4 8b bb b5 a5 06 3d 82 0f 39 3c
       0.013789946 -0.0042692036 0.032872874 0.011295201
000160 e2 cf af bd 6c 9d 39 3d cd a3 52 bc e8 cd 70 3d
       -0.085845724 0.045316145 -0.012856436 0.058790118
000170 0e 7c 41 bb 1c 19 bb bd c1 9d 6c 3d f9 03 91 3c
       -0.0029523405 -0.091356486 0.057767633 0.01770209
000180 1b b5 3c 3d c0 16 b8 3d ad c1 b2 bc 79 74 98 bd
       0.046071153 0.08988714 -0.021820867 -0.074440904
000190 34 2f 12 bd 24 6d ab 3c 0d 91 5d 3c f8 6e a4 bc
       -0.035689548 0.020926066 0.013523352 -0.020072445
0001a0 36 b3 12 3d a3 65 b4 3c fa 47 a2 bd 4c 48 76 3c
       0.03581544 0.02202112 -0.07923885 0.015031885
0001b0 5c e2 16 3d a5 1f 86 bd f6 aa 24 be 5c a3 8d bd
       0.036836967 -0.065490045 -0.16080841 -0.06915924
0001c0 f6 60 4d be 40 37 74 be 8a 49 f7 3d a6 c9 4b bc
       -0.20056519 -0.23849201 0.12074573 -0.012438213
0001d0 cc 94 8e bd ab 64 2a 3e 29 a8 d8 bd 69 b9 c6 bd
       -0.069619745 0.16639964 -0.10578949 -0.09703333
0001e0 02 09 eb bd fd 06 f1 bd 61 34 37 bd 65 ac 94 3d
       -0.114763275 -0.11768911 -0.044727687 0.07259444
0001f0 a3 58 b1 3b 6a 41 01 3d d6 52 1b be 18 4e fc bd
       0.0054121776 0.031556524 -0.15168318 -0.12319583
000200 9c 74 db bb 01 22 68 be 8c dd 92 bd b1 16 38 bd
       -0.0066972505 -0.22669221 -0.07171163 -0.044943515
000210 bc 45 90 bd 06 31 37 3d 1b a6 f6 3d 32 3e 1d be
       -0.07044551 0.044724487 0.12043401 -0.15355757
000220 b0 44 ae bb a7 eb f4 bb a8 3b c6 bd 73 e4 34 3c
       -0.005318247 -0.007474381 -0.09679347 0.011040795
000230 35 85 4d bd ff 36 13 3e 8c f8 26 3d 4c 96 c3 3d
       -0.050175864 0.14376448 0.040764377 0.09550151
000240 22 ca 05 be f5 dd 2a 3e fd 0d 1a bd bd 6a cc bd
       -0.13065389 0.16686232 -0.037610997 -0.09981296
000250 43 fb 97 3d 37 15 9a bd 04 d6 49 be 35 d5 a9 3d
       0.07420971 -0.07523578 -0.19710547 0.08292619
000260 81 f6 1e 3c 6a ce 8e 3d 92 52 be bb 0b cb 28 be
       0.009702326 0.06972964 -0.005808183 -0.16483705
000270 c8 d6 97 3d 48 16 ae 3c 50 06 03 be f8 72 f9 3d
       0.07414013 0.021250859 -0.12795377 0.12180132
000280 e3 1c a1 bd 58 5a f1 bd b7 6b 76 bd ee ab 30 3d
       -0.07866838 -0.1178481 -0.06016132 0.043132715
000290 8d 8a 01 3d 80 4a ab 3d 56 d3 70 3d a5 72 52 3c
       0.031626273 0.08363819 0.058795296 0.012844716
0002a0 af 15 74 bd 4f f8 71 bd 9a 6d 93 3c 11 cf 38 be
       -0.05959099 -0.059074696 0.017996598 -0.1804774
0002b0 a7 98 fc bc 53 63 a7 bd c5 75 a3 3b 81 64 02 be
       -0.030834509 -0.081732415 0.0049884045 -0.12733652
0002c0 34 2d 09 bd 69 38 e5 bd 42 88 08 be 8e 91 ce bd
       -0.033490375 -0.111924 -0.13333228 -0.10086356
0002d0 96 a1 fc bc 8a 76 13 bc 2c 04 6a 3d 9f 55 9b bd
       -0.030838769 -0.00900043 0.057132885 -0.0758469
0002e0 9f b3 af 3d af ee bd 3d ed 7f 0b 3d 45 df de 3d
       0.08579182 0.09274041 0.034057546 0.10882429
0002f0 d1 a0 df bd 2a 9d 06 be 70 9b 53 be d1 26 42 be
       -0.10919345 -0.13145891 -0.20664763 -0.1896012
000300 76 85 0b be 80 d2 11 bd 62 f0 95 bd 5f 72 f4 bc
       -0.1362513 -0.03560114 -0.0732124 -0.029839693
000310 d0 92 d8 bd 6b 02 2d bd 04 98 59 bc 3e d5 a5 bd
       -0.10574877 -0.042238634 -0.013280872 -0.08097313
000320 ea bc 87 3d c5 1b 0c bd e6 29 24 be db 51 c6 3d
       0.066278294 -0.03420617 -0.16031608 0.096835814
000330 64 64 ec bd f9 c7 df bd cb 75 23 be b8 02 8d 3d
       -0.115425855 -0.10926814 -0.15962903 0.06885284
000340 70 02 b0 bd 10 d8 f4 bc 71 57 73 bc 83 4a a9 bd
       -0.08594215 -0.029888183 -0.014852391 -0.08266165
000350 cf 8e 1a bb 2d 4a 4b bd 2f 84 d7 3b ba 30 15 3d
       -0.0023583656 -0.049631286 0.006577037 0.036423422
000360 51 55 aa bd d0 17 82 3d c3 4b 67 3d 93 79 c2 bc
       -0.08317054 0.06352198 0.056468736 -0.023739612
000370 78 36 3f 3d 88 2a 55 3d 3c a2 d3 bb d2 12 22 bc
       0.046682805 0.052042514 -0.006458549 -0.009892182
000380 52 58 e0 3c 19 4b 27 bd 9a 41 a9 3c 40 2e c8 bc
       0.027385864 -0.040843103 0.020661164 -0.024436116
000390 18 18 ac bb bf 11 16 3d c1 14 b6 3c 00 ea 5a 3d
       -0.0052518956 0.036638018 0.022226693 0.053445816
0003a0 b8 91 37 3d 1c 54 0f 3d ce b7 92 bd 56 67 94 3d
       0.044816703 0.034992322 -0.07163964 0.07246272
0003b0 bf 16 ff bc 3c 7e 96 3c b9 2b 7c 3d f8 de 02 ba
       -0.031138776 0.01837074 0.061565135 -0.00049923314
0003c0 bc a6 2c be a9 00 95 3d 6c a3 78 bd 33 de a4 bc
       -0.16860479 0.072755165 -0.060702726 -0.020125484
0003d0 6b ff 79 3d b2 f9 c9 3b 3c 73 38 bd bb 98 10 bd
       0.0610346 0.006163799 -0.04503177 -0.035301905
0003e0 7d 81 b9 ba 86 08 7c bc 44 88 0a bc b3 29 48 bd
       -0.001415297 -0.0153828915 -0.00845534 -0.048867892
0003f0 d4 a9 f2 3d 4b 98 ad 3d 67 6c 02 3d 27 32 a1 3c
       0.118487984 0.08476313 0.03184166 0.019677235

fire2.expand3x3.bias f4 [64]
000000 2b 21 63 be 7f cb fd bd 32 5d 6c 3d ce 15 64 bd
       -0.22180621 -0.123923294 0.057706065 -0.055684857
000010 ad a8 df bd a8 b5 05 be 56 7b 4e 3d c8 6b 87 bc
       -0.10920844 -0.13057578 0.05041059 -0.016530886
000020 e8 6e 28 be 5b 28 81 bd de ec 26 bd f0 79 be bc
       -0.16448557 -0.06306525 -0.040753238 -0.023251504
000030 c3 8c 3a bd e3 54 87 bc 2b c2 ac bd 74 49 36 bd
       -0.045544397 -0.01651997 -0.08435472 -0.044503644
000040 43 de ff 3c ee 77 1d be 01 4f 77 be 6a 6e 99 be
       0.031233912 -0.15377781 -0.24151231 -0.29967052
000050 0a 08 6d bd 9f e0 0f be 78 e7 21 be c5 62 60 3d
       -0.057868995 -0.1405053 -0.15810955 0.054781694
000060 a7 b7 32 3d 6c ae 8b bd 90 7b 14 be 3b 32 78 bd
       0.043632176 -0.06820378 -0.1450026 -0.06059478
000070 eb 03 04 be 96 df bb 3d e8 75 cd 3b da 80 7b be
       -0.1289212 0.09173505 0.006270159 -0.24560872
000080 4e 16 a6 3d 16 8d 30 bc ee 99 c7 bd 1c d2 39 bd
       0.08109723 -0.010775825 -0.09746157 -0.04536639
000090 fc 9b 86 be 4b 7c e1 bb d8 59 05 bd 5e e4 0e bd
       -0.26290882 -0.006881272 -0.032556385 -0.034885757
0000a0 5c dc d3 bd df 5a 84 bc 65 09 db 3d 51 78 00 3e
       -0.103447646 -0.016156612 0.10695151 0.12545897
0000b0 85 34 c6 bd 3a e7 ca bc 86 42 d6 bb f9 85 5b bb
       -0.09677986 -0.02476846 -0.006538692 -0.0033496602
0000c0 69 5c 7b bd 1b 8b c9 bd a4 be b1 ba ec ec a4 bd
       -0.061367426 -0.098409854 -0.0013560844 -0.08053002
0000d0 60 9c b6 ba 53 cc cc bc 06 bd ee bd a2 d8 05 be
       -0.0013932101 -0.024999773 -0.11657147 -0.1307092
0000e0 25 18 4f bd 55 90 0f 3c 4c 8c 93 bd dd e7 9e bd
       -0.050560135 0.008762439 -0.07204494 -0.07759068
0000f0 5d 08 f1 bc cd 87 fb 3c f0 ff c3 bd f8 2a be bd
       -0.029422933 0.030704403 -0.095703006 -0.092855394
